model/seq-model.pth (torch, 403146 bytes, 18 tensors)

rnn.weight_ih_l0 f4 [192, 64]
00000000: 2c7d a6bc eca4 fcbd 483b 1b3e 3e0c 10be
00000010: 781d a8bd 2e4e 6f3d 05c5 77be 2e00 1d3e
00000020: 73fb b6be d7dc 60be fdce 6ebd cde5 78bd
00000030: 04f0 ccbd 5dcf e2bb a407 833c c16f 4e3d
00000040: a6e2 833d 995b 35be 0c0f 3cbe ef1f e9bc
00000050: c87c 1b3d 4e84 473d 0c10 043e 799d c53d
00000060: 21fc 4abc c002 74bd 7b35 b03c ee97 a93d
00000070: aaeb 683d bbfa 23be 1542 05be a874 8b3d
00000080: 617c a33d 706b 043e 1158 693c 3c97 fc3d
00000090: 9ccf d53d a6dd d63d 38e5 e63c d17a 5c3e
000000a0: 5172 573e c884 013d 5c6c b33d 2f2a 503d
000000b0: a6d3 9a3d e0ea 323e 7bf9 19bc f128 8d3c
000000c0: 2002 d93d 46d7 08be 1db9 f83d 1a05 d2bd
000000d0: 24c5 0bbe e0a6 eebd 2ded 973e dd98 a93d
000000e0: 4325 1b3d c2e2 4a3e 2762 bdbd 7c31 0c3e
000000f0: 60a5 07be a3ab cabc 432b 84be b296 e3bd
00000100: df2c a03d 48b1 bb3d 58a5 2c3b 2ab7 41be
00000110: 3d48 3fbd 7d76 9cbc bef5 a1bc 2549 013e
00000120: 9440 123e 0ada 063e 7a09 16bb 0010 4cbd
00000130: f129 453d 95b4 d7bd 6490 e93d be37 293c
00000140: 00d1 233e 936d b43d 00b1 cf3d 6589 f1bd
00000150: b9a7 57ba 2818 963d b310 3abd a046 f7bc
00000160: 8bf0 03be d902 cf3d 0b37 eabc 9706 9b3d
00000170: d927 9ebc 9d8c 693d bdcc 293e 8d8c a13d
00000180: 91ef 8fbd adf2 ccbd 2e56 853c 86c5 79bd
00000190: c84a 18bb 085b b63d 7573 b93d 5a37 043e
000001a0: 8961 e0bd b60e 8b3d 3159 e3bb 2141 223e
000001b0: 149e ee3d 3ce4 3cbd 5eeb bcbd 5355 acbd
000001c0: 2e3a 25bc 603f 07be 354b 41bd 558a 2c3d
000001d0: 0224 773d 9e16 61bd 2623 c73d 6b91 203d
000001e0: 447d 153e 8e72 8fbd 6ef8 1ebe a12e 0abd
000001f0: dde8 c83a 01be 66be 1f3f bd3d 4d64 ea3d
00000200: 213a 7b3d dca2 143e 8774 223e 5b41 9abc
00000210: bc8c 143e 2d54 b9bc c32a 723d 3fe5 32bb
00000220: e939 0f3d 4d2c 053e f066 3cbc 9fc9 b0bd
00000230: 834f 013e ccc7 b83e 4615 2b3e 04fe b93e
00000240: 72ce c13e fbe1 683e 597b 28be fc41 3f3e
00000250: e3e7 a13e 989a 5e3e 8f20 d53b 76fa edbd
00000260: cfd1 8c3d 0271 073e a308 e8bd 3c03 71be
00000270: 8f5d cebb 0343 3e3e 320b 8e3e ce12 0abe
00000280: 8212 ebbd 88dc 90bd 88b4 f43d 3649 3f3c
00000290: e379 71be 7918 06be b0bb 00be b48e 8dbd
000002a0: f4f5 cd3c c305 86bd af35 aabd 4249 c0be
000002b0: 9a66 243e 3688 87be 69d4 e6bd e597 26be
000002c0: 8c0b 9f3d 7855 afbd 7cec 94bd 0677 efbd
000002d0: c0ad 0abe a9c7 ce3c cd8d dabd c473 393d
000002e0: 9ace 933c d363 19bd d0df df3d 7dfd dabd
000002f0: 6dcb 983e f9a0 59bc 788d 913d 4c93 bbbd
00000300: 79b4 84bc 3769 30be 3b22 e6bc 8564 9abc
00000310: 478d adbc 6701 223e 80ae 453d 341c 70bd
00000320: fe61 973d ed84 69bb 2285 5a3d d9b7 dcbc
00000330: cb71 f93c 0dfa 0a3e 31e2 833d 2400 043d
00000340: 512b b43c 0778 d73c 7778 253e 3835 cf3d
00000350: 699d 853c 00dd 2d3d e5a6 603c 66c2 363d
00000360: fe8c bebd 264b d9bd 1259 573d 6c62 8f3d
00000370: 689c 103e 7bd0 79bd 8815 cebd 3968 d9bd
00000380: 626f edbd cb4d 21be c72f 1f3e 9eaa 433e
00000390: 554c d6bd 36b0 793c 5b6f a13d d62e 2dbd
000003a0: a8e9 66bd 0304 7f3b 1973 163e 34d2 2cbd
000003b0: 7aac 693d 4203 32bd 8e80 aa3c 3022 883c
000003c0: c493 a6bd daef 64bb d726 613d 9208 cabd
000003d0: 98f7 033e 5883 fd3b 5369 d33d 7d9b f2bd
000003e0: b41c a03d 3477 74bd 4d0a 453d 0961 cd3d
000003f0: 2511 4abd 9422 073e 6510 a53d f9e9 28bd
-0.020323358 -0.12336144 0.15159333 -0.1406717 -0.08208746 0.058424167 -0.2419625 0.153321
-0.35738716 -0.21959244 -0.05830287 -0.06076603 -0.10006717 -0.0069216923 0.015994854 0.050399546
0.06439714 -0.17710723 -0.18365115 -0.02845761 0.037960798 0.04871016 0.12896746 0.09649176
-0.012389214 -0.059572935 0.021509876 0.082809314 0.05686537 -0.16013615 -0.1301349 0.0680936
0.07982708 0.12931609 0.014242188 0.12333533 0.10439989 0.10491495 0.028185472 0.21531226
0.21039702 0.03162077 0.08760902 0.05082148 0.075599 0.1747241 -0.00939786 0.017231436
0.105961084 -0.1336337 0.121446826 -0.10254879 -0.13649422 -0.11652923 0.29673138 0.082811095
0.037877332 0.19813064 -0.09247237 0.13690752 -0.1324668 -0.024740046 -0.25814256 -0.11112727
0.078210585 0.09164673 0.002634367 -0.18917528 -0.04669975 -0.019099468 -0.0197705 0.12625559
0.14282447 0.13169113 -0.0022893832 -0.049819946 0.0481357 -0.1053249 0.114044935 0.010328231
0.15997696 0.08809962 0.10141182 -0.11793784 -0.0008226592 0.07328826 -0.045426082 -0.030185044
-0.12884729 0.10107965 -0.0285907 0.07569616 -0.01930611 0.057018865 0.16582008 0.07888136
-0.070281155 -0.10007224 0.016276445 -0.06097939 -0.0023237932 0.089040816 0.09055225 0.1291174
-0.10956103 0.06789915 -0.0069381227 0.15845157 0.11651245 -0.0461161 -0.0922458 -0.08414712
-0.010084672 -0.1320777 -0.047190864 0.04212411 0.060337074 -0.05495321 0.09723501 0.03920118
0.14598566 -0.070042714 -0.15524456 -0.033735875 0.0015328188 -0.22533418 0.09240555 0.11444912
0.061334733 0.14515251 0.15864764 -0.018829992 0.14506811 -0.022623146 0.059122812 -0.0027297286
0.034967337 0.1300518 -0.011499152 -0.08632206 0.12627988 0.36089933 0.16707334 0.3632661
0.37852818 0.22742455 -0.16453303 0.18677515 0.31622228 0.2173866 0.0065041254 -0.11620037
0.06875955 0.13226703 -0.11329772 -0.2353639 -0.006297774 0.1858025 0.27742916 -0.13483736
-0.114781395 -0.07073313 0.11948496 0.01167517 -0.23581652 -0.13095273 -0.12571597 -0.06911984
0.025141694 -0.06544068 -0.083110206 -0.3755589 0.16054764 -0.26471108 -0.11270983 -0.1626888
0.07765874 -0.08561224 -0.07271668 -0.11692624 -0.13542843 0.02524169 -0.106715776 0.04527642
0.018042851 -0.037448715 0.10931361 -0.1069288 0.29842702 -0.013283008 0.07107061 -0.09158954
-0.016199337 -0.17227636 -0.028092494 -0.01884676 -0.02118553 0.15820847 0.04826212 -0.058620647
0.073917374 -0.0035632208 0.05334962 -0.026943134 0.030449769 0.1357195 0.06439627 0.032226697
0.021993311 0.02630235 0.16159235 0.101175725 0.01631041 0.04244709 0.013711666 0.044618987
-0.09304236 -0.106100366 0.05257518 0.07001194 0.14122164 -0.060989838 -0.100627005 -0.10615582
-0.1159351 -0.15752332 0.1554557 0.19108054 -0.10463778 0.015239766 0.078825675 -0.042280994
-0.056375176 0.0038912303 0.14692344 -0.042192653 0.057049252 -0.04346014 0.020813253 0.016617864
-0.08133653 -0.0034933002 0.05496868 -0.09864916 0.12887418 0.0077366047 0.103228234 -0.11846063
0.07817975 -0.059683993 0.048105527 0.100282736 -0.049332757 0.13196784 0.08059768 -0.04123876

rnn.weight_hh_l0 f4 [192, 64]
00000000: f5b4 aabd 4b91 843d 408a 3f3d 053d 66be
00000010: 7736 083c 2af7 693d 315f 2ebe 8e70 863e
00000020: a119 4abe d637 9e3d c6fe 163e 0351 b93d
00000030: f6d6 1fbe a44d 71be c24d 2a3a d6d7 8ebd
00000040: 7725 fe3d b7ed 4fbc 4b35 713d dcf5 a237
00000050: 0e01 aebb 9437 933c b922 fb3d e7f8 263c
00000060: 9035 0d3e 17b9 803d ffd5 2e3d 90d4 b3be
00000070: 819b d73d b23e 17bc b2d9 24be b0fd a43c
00000080: a723 a5bc 4d65 0c3d bab7 2dbe 7b20 7bbc
00000090: 76f8 2ebd 737d 653d b423 163e 752a 95bd
000000a0: 637c 973e 6efd fc3d 85d2 b2be b693 bf3d
000000b0: 67c4 06be f426 023e 9153 01bd bd3e f23d
000000c0: 3afd e53d ebb2 18be b49e b23d ca7a 773d
000000d0: 366d 1cbd 9d0a ff3d 6908 7bbd d7d5 3b3e
000000e0: d635 a43d 9af1 d73e cd57 f7bd e8f6 b83d
000000f0: 4a86 3a3e bdb8 943d 52d4 fc3d 4d47 e8bd
00000100: 6578 02bd b158 a4bd 9f02 b13d c4d5 86bb
00000110: 2d76 b2bd 2880 053d 4e2d 52bc 1ae9 a3bd
00000120: 1b0f 40bd 139a bc3d e97d 78bd cf26 2eba
00000130: fa74 4a3d 0307 623d 0bcd 593d 8331 db3c
00000140: 78fa d1bd dc9d 823c 8a97 f6bd 9643 593b
00000150: 9497 10be baac 993c 209d 84bb 71d4 4cbb
00000160: 420c 5e3d 3bea cd3b 156f f03d 88ed 4dbd
00000170: a7fe 883c fe4d fa3d 6d21 fabd 4dad b73d
00000180: 37e1 a4bd 9baa ee3a e527 e7bd f769 17bd
00000190: 6c24 3ebd d842 513d 2c72 debd a1f9 2e3d
000001a0: 9af1 09be dfca b6bc 422d 51be 6847 e53c
000001b0: f714 acbd a755 c73d 14b0 a43d ea0a 7bbd
000001c0: 99f7 68bc 63d4 853d 21a1 f5bd b250 cdbc
000001d0: f673 e9bd 79a9 803c 058e 1cbe 440e a53d
000001e0: ac50 4c3e 09b0 92bc b3c7 933d 7391 4d3d
000001f0: 6347 27bd 942b db3d 3334 9dbd ad2e 18bd
00000200: dfa6 233d ef8d 90be 7a3a 9f3e a7a3 2f3e
00000210: 83c3 e4bd fa79 40be cc4e d7bd ba88 07bd
00000220: 8519 7abe a82a d2bd e564 763e 96f3 93be
00000230: 5cf9 e63d 7d6e 88bb 79ce edbd d1c9 2fbe
00000240: 89a9 be3d 8407 1a3e 6df2 4bbd 756f 1bbd
00000250: 7c30 0f3e ead4 18bd 711d f3bd 334d 673e
00000260: 5d26 36be e256 443d bb92 9c3d aa46 abbd
00000270: c393 4f3e 47f7 34be 7e4e 343e 76bf 1abe
00000280: ee7f 3abd c2eb 43be c475 a73e 5aff bdbd
00000290: b141 babd 5ba3 533e ca0c 36bd 27f6 eabc
000002a0: 725e 64bd ce65 58be 1ac1 e73c 4639 3ebe
000002b0: 3f1e 6f3e eb07 183e 7470 0a3d 658d 05bf
000002c0: 9671 6c3c 5449 34be 0634 2bbe 07ed b73d
000002d0: f788 febd b722 00be a366 fdbd 0f84 69bd
000002e0: 418b 11be 2aca c63e ce50 1c3e 1f43 c6bd
000002f0: 04ea 2a3b a169 1e3e 9f48 833d 95ab fdbd
00000300: 7825 2ebe af2b be3b 0326 2d3d 07e3 21be
00000310: 0977 e4bd c817 afbc 6ff4 093e 6fb2 0a3e
00000320: 4d8f d03d 9fb3 293c 9ab9 56bd 379e f9bc
00000330: 11ac 9dbd 69df 2a3b 651c bc3d b515 993c
00000340: 48ce 973d ddcd 2abd 0f76 9cbd cccd bfbd
00000350: 4bbe 8d3d 8674 503d c6f5 243d b3e3 533d
00000360: 138b 393e 2977 35be d047 693d 8335 8ebc
00000370: f127 ad3d a33d d8bc 264f 103c ad79 2ebe
00000380: b56d dc3c e91e a33d 70e5 c4bc 6231 b03d
00000390: 3966 02bb 7fca 213e 4096 f43d 7963 353d
000003a0: 2648 99b9 7d74 0b3e 100c c6bd 69c2 a43d
000003b0: 5704 883c c0ae 32bd 8cb3 5fbc f65e 2e3d
000003c0: a4f9 893d a162 c3bc 5af9 a0bd 3718 28be
000003d0: 5c23 3ebd dc55 213d c4a0 86bd 0834 133e
000003e0: f615 08bd 898f 80bd 5c2c 2dbe 266a a9bd
000003f0: d378 21be 0c0b 4c3d f09b 813b 2e76 c23c
-0.08335296 0.06473025 0.046762705 -0.22484215 0.008313767 0.05712048 -0.170285 0.26257747
-0.19736339 0.077254936 0.14745626 0.09048655 -0.15609345 -0.23564774 0.0006496572 -0.06974761
0.124094896 -0.012690953 0.058888715 1.9426392e-05 -0.0053101843 0.017970838 0.12262482 0.010191179
0.13789964 0.06285303 0.04268455 -0.3512311 0.10527707 -0.009231256 -0.16098669 0.020140499
-0.020158602 0.034276295 -0.16964617 -0.015327568 -0.04271742 0.05602784 0.14662057 -0.07283489
0.29587087 0.123530254 -0.3492624 0.093543455 -0.13160859 0.12710172 -0.031573836 0.11828373
0.1122994 -0.14912002 0.087216765 0.060419835 -0.03819009 0.12453196 -0.061287317 0.18343292
0.08018081 0.42176515 -0.120772935 0.09031469 0.1821529 0.072617985 0.123451844 -0.113417245
-0.0318531 -0.08024729 0.08643078 -0.0041148383 -0.087139465 0.032592922 -0.012828184 -0.08003445
-0.046889406 0.09209075 -0.060666952 -0.0006643356 0.049427964 0.05518247 0.05317406 0.026757007
-0.10252851 0.015944414 -0.120406225 0.0033151857 -0.14120322 0.01875912 -0.004047051 -0.0031254555
0.05421091 0.006284026 0.11739937 -0.050275356 0.01672299 0.12221907 -0.12213407 0.089686014
-0.08050769 0.0018208803 -0.11286906 -0.03696629 -0.046421453 0.051089138 -0.1086162 0.042718533
-0.1347107 -0.022313533 -0.2042742 0.02798815 -0.08402436 0.09733134 0.08041397 -0.061289705
-0.014219188 0.0653465 -0.119936235 -0.025062893 -0.11399071 0.01570581 -0.15288551 0.080593616
0.19952649 -0.017906206 0.07215824 0.05018754 -0.040839564 0.10701671 -0.07675972 -0.03715389
0.039954063 -0.28233287 0.31099302 0.17152272 -0.111701034 -0.1879653 -0.10513076 -0.033089377
-0.24423797 -0.10262042 0.24061926 -0.2889678 0.1127803 -0.004163562 -0.11611647 -0.1716683
0.0930968 0.1504193 -0.049791742 -0.03794809 0.13983339 -0.037312426 -0.1187085 0.22588043
-0.17788072 0.04793442 0.07645174 -0.083630875 0.2027121 -0.17672454 0.17608067 -0.15112099
-0.04553216 -0.19132903 0.32707036 -0.0927722 -0.09094561 0.20667784 -0.04444579 -0.028681828
-0.055754133 -0.21132585 0.02829032 -0.18576536 0.23351382 0.1484677 0.03379865 -0.52168876
0.014431378 -0.17606097 -0.16719064 0.08980756 -0.12428468 -0.12513243 -0.12373092 -0.057010707
-0.14213277 0.38826114 0.152652 -0.09680771 0.0026079426 0.15469982 0.06410336 -0.12386242
-0.1700648 0.0058035473 0.04227258 -0.1580926 -0.11155517 -0.021373644 0.1347215 0.1354463
0.101835825 0.010357766 -0.052423097 -0.03047095 -0.07698835 0.0026073104 0.09185103 0.018687109
0.07412392 -0.041700233 -0.076397054 -0.093654245 0.06921061 0.050892375 0.04027345 0.051730823
0.18119459 -0.17721237 0.05695325 -0.0173595 0.08454884 -0.026396578 0.008807933 -0.17038603
0.026907781 0.0796488 -0.024035186 0.08603169 -0.0019897355 0.15799902 0.119427204 0.044284318
-0.0002923619 0.13618656 -0.096702695 0.08044893 0.016603632 -0.043623686 -0.013653647 0.04257103
0.06737068 -0.02385074 -0.0786006 -0.16415487 -0.04642044 0.039388523 -0.06573632 0.14375317
-0.03322407 -0.06277377 -0.16911453 -0.08272199 -0.15768747 0.049815223 0.003955357 0.023737993

rnn.bias_ih_l0 f4 [192]
00000000: b544 003e 5577 4b3d e10d c93c 8a31 02be
00000010: 14c2 a23b 9f61 b53c ec16 b2b9 5d8f 553d
00000020: 9e1e 113e 612c 59bd c8c5 083d f774 bb3d
00000030: 9372 703d 2d88 ba3c f1a0 0e3e 44de a0bd
00000040: 5919 93bc 8b9a 1cbe b23f 103e 3823 0a3e
00000050: 7818 5a3c 5a26 523e fe2a d8bd 5323 adbd
00000060: 0a85 d5bd 72d6 403e 342f 063e 0827 12bd
00000070: 881f e23d 1131 c03d 85de ec3c 6e4c 01be
00000080: 74e5 42be d3f3 823d 6bc3 25bc 837a 953d
00000090: 7142 333d c194 003e fcc2 99bc 4348 e6bd
000000a0: 8b7c 003e 17d0 713d 4cde cd3d 31d1 b83d
000000b0: 9314 f63c 2211 1b3b 5f8f f2bc 54bc 373c
000000c0: 944e f1bc fd54 ffbc b744 cbbc 9d50 15be
000000d0: eb70 c53d f87c 1f3e 6c3f f0bc fc78 a5bb
000000e0: 97d5 843d 6ce8 9b3d 1ae9 94bd d5f2 163e
000000f0: c69a 053e 8a27 b9bc 7a60 9f3a 00a1 313d
00000100: 478a 50bc 7992 363d 1b69 1cbe d3f8 e5bc
00000110: 76bb dc3d 327f 903c a18f 6cbd d9ce 723d
00000120: b50c 07bd 3144 c6bd edf4 a3bd 51f6 7e3d
00000130: a7b0 403d 83c9 a53d 6685 fabc 7983 243c
00000140: c7b9 d73d 16d7 983d 4f24 cf3d ee40 4a3d
00000150: d67e 373e 8355 ab3d abc7 f33d 1819 7a3d
00000160: 2883 bc3c 1fb4 7fbc 708d 19bd f5ae f93d
00000170: 7e46 163d 2a6e c9ba 2ced 1b3e 0a77 883d
00000180: 0060 303c ed79 e23d 1309 93bd 2eb6 f8bc
00000190: 5add d3bd 9a21 efbc 1b12 a8bd c98f 513c
000001a0: 9007 0f3d b71c a93c e088 15bd 455d b3bd
000001b0: cf75 37be f18f 4a3d ff06 783d ecdf d3bd
000001c0: 3ae3 34be 737b 0cbd 2d08 0dbd f487 09be
000001d0: aa90 513d 3246 1abd 2841 3ebd d6e0 00bd
000001e0: f851 9ebd be95 25bd 5cab a8bd 9698 1c3e
000001f0: 6397 23bd 462c 67bd 4d1f f9bc c0f6 cd3b
00000200: 9d7f 053d e085 ae3d 189b 17ba 331e ce3d
00000210: b211 90bd aea3 b03d f074 9ebd c12f 72bd
00000220: 49f4 f43d 59ba 8abd ad11 9abd aff7 2bbd
00000230: 696f 9e3d d23d 95bd 9a90 07bd 4a9f 81bd
00000240: bfb3 a03c 228f 0bbe c78d 163e c22d ef3d
00000250: a194 ee3d dc62 62bc 1da5 4fbd 3886 093d
00000260: 78d8 e6bb 9a5c b0bd e4c7 d2bd d28f 35bd
00000270: fb1e 2cbd 49c9 43bc dc7a 1a3e 4298 f4bd
00000280: 73d1 d43d c2aa 803c c5f0 253c 08e6 043e
00000290: a7fd 123b 8944 1dbe 17af 9bbd 37b7 913d
000002a0: 0bf3 823b 1deb bcbc 6564 61bd 4a6b 0a3e
000002b0: c9fd 0f3e 53a9 303d de35 f4bd 80c5 ac3d
000002c0: b42d 5b3d 35ec 023e 218a afbd 500a 2cbe
000002d0: 60df c0bd 9a85 79bb 9558 25bd 6290 30be
000002e0: 7914 1a3d b8fd efbb a54b e83d 7b84 d13d
000002f0: 445d 203c 29bd 66bd 4507 a0bd cd3f 573d
0.1252621 0.04967435 0.02454275 -0.1271421 0.0049669836 0.022141276 -0.00033967884 0.052138675
0.14171836 -0.05302084 0.033391744 0.09153169 0.058703016 0.022770012 0.13928582 -0.07854894
-0.017956423 -0.15293328 0.14086798 0.13489997 0.013311498 0.20522442 -0.10555075 -0.08454003
-0.10425766 0.18831804 0.13103944 -0.035681754 0.1104117 0.09384359 0.0289147 -0.12626812
-0.19032842 0.06394162 -0.010117392 0.07298758 0.043764535 0.12556745 -0.018769734 -0.112442516
0.1254751 0.05903634 0.100521654 0.09024275 0.030039107 0.0023661335 -0.02960938 0.0112143345
-0.029456414 -0.031168455 -0.02481304 -0.14581533 0.09640678 0.15575016 -0.029327117 -0.005049823
0.064860515 0.0761269 -0.07271023 0.1474107 0.13047323 -0.022601862 0.001215949 0.043366432
-0.01272828 0.04457328 -0.1527447 -0.02807275 0.10777943 0.017638776 -0.057754163 0.059279297
-0.032971103 -0.09680975 -0.080057 0.062246624 0.04704347 0.08095076 -0.030581187 0.010041111
0.10533481 0.074628994 0.10114347 0.049378328 0.17919478 0.083659194 0.11903318 0.061059088
0.023011759 -0.015606909 -0.0374884 0.121915735 0.03668832 -0.0015367914 0.15227193 0.0666333
0.010765076 0.11058412 -0.07179465 -0.030360308 -0.10344954 -0.029190827 -0.08206578 0.012790629
0.03491932 0.020643575 -0.036507487 -0.08758024 -0.17916034 0.04945368 0.060553547 -0.10345444
-0.17664805 -0.034297418 -0.034431625 -0.13430768 0.051163353 -0.0376646 -0.046448857 -0.03146442
-0.07730478 -0.04042601 -0.08235809 0.15292582 -0.039939296 -0.056438707 -0.030410433 0.0062855184
0.032592405 0.085216284 -0.00057833036 0.10064354 -0.07034625 0.086249694 -0.07737148 -0.059127573
0.11960656 -0.06773824 -0.07522903 -0.041984256 0.077360936 -0.07287182 -0.033096887 -0.0632921
0.01961696 -0.1362882 0.14702521 0.116786495 0.116494425 -0.013817515 -0.050694574 0.033575267
-0.007044848 -0.08611412 -0.10292032 -0.04432661 -0.042021733 -0.011949846 0.1508593 -0.119431034
0.10391512 0.015706424 0.010128205 0.12978375 0.002242902 -0.15358175 -0.07601755 0.071150236
0.003996258 -0.02306133 -0.055027384 0.1351749 0.14061655 0.04313023 -0.11924337 0.08436108
0.053510383 0.12785418 -0.08571268 -0.16800809 -0.094176054 -0.0038074018 -0.04036768 -0.17242578
0.03761718 -0.007323947 0.11342553 0.10230347 0.009787861 -0.05633274 -0.078138866 0.05255108

rnn.bias_hh_l0 f4 [192]
00000000: b5e1 f1bc 54c1 5e3d 0d15 b93d fcc8 34be
00000010: 7e5a da3d d1dc 793d f995 a33d 55d1 aa3c
00000020: f673 9c3c bcd6 303e d445 453d 0b42 afbd
00000030: ae06 013e ab75 56bc 1731 8dbd 173b a53d
00000040: ab61 3dbb b52c 2ebe a74a c63c 3a49 143e
00000050: e56b d4bd 5cbb 4b3e 644f 2fbd ab68 4fbd
00000060: c183 333b cadd cbbc fd3e 123e cb09 21bd
00000070: 1516 34bd 5c23 eb3b 673a 3e3e 4bd9 fbbd
00000080: 483a 8bbd ce0f c73d 0617 183e 4779 08bd
00000090: e7f5 af3d 63d4 753d e222 75bd 6d49 c13c
000000a0: 5157 c9bc 9cc0 6a3a ef60 0fbe 788a 463b
000000b0: c119 debd 5577 593c 4997 23bd fc64 5dba
000000c0: 7f38 b63c a26d 17bd 84b6 e23c 6d59 73bd
000000d0: cb4c c8bd b75f 8fbc cddb e33c 0037 39bd
000000e0: 8ef8 b43c 3dc2 04be e55f 74bd 0249 d23c
000000f0: 3886 113e 4188 a1bd 3e28 dc3d 1a4d a03d
00000100: 07a0 183d f822 bdb9 f30c 37bd 207b 67bd
00000110: f48e 94bd ff69 1cbd 53ef 0cbe 9ddc ac3d
00000120: 7d09 72bd 1d64 f93c 46b3 9a3c b167 7a3d
00000130: 7557 8dbd e688 a8bc d155 3d3d 2b54 aebc
00000140: 07c2 a53d a5c6 07bb 58b3 fdbd d9c0 45bd
00000150: a617 2c3e 8b4f 04bd ee24 9dbd 2dcb e03d
00000160: 5a12 02be 15a5 46be 28ba c7bc 2c84 823c
00000170: ae60 0dbe 5a2b ee3c a2e1 b23d 2c11 04be
00000180: db4f 08bd a4d7 96bd 3bb8 f3bd 316a ebbd
00000190: 9eec 39bd 667a e53b d60e 433d 55cd 8dbd
000001a0: 54df 793d 7bf7 25bd 225a 833d 8a55 98bc
000001b0: c642 a7bd 5f8e febb 08e6 0ebe d9c5 74bc
000001c0: 8b67 21be 3002 41bd a4a1 b5bd 1e4b d13b
000001d0: b4ca c63d 1877 a3bd a061 113e a5d3 b1bc
000001e0: acb2 27bb 4ddd 323d adeb 7fbc 882f d93c
000001f0: e499 9abd dbff f33d 02d2 b43d 25a5 5b3d
00000200: 5b8e fcbd da7e 933d 4ff3 a03e 8a4a 0abe
00000210: 5614 693d 94cd 313e 49e4 8e3d 286a e2bc
00000220: c316 543d b255 95bd e72a 9f3d fde5 b03d
00000230: 991c f9bd b232 683d 9102 113e bf36 96bd
00000240: 7c02 2abe 14c4 06be e53f 2ebd 6385 14bc
00000250: f09d ed3d a674 e83c fde6 dbbd 1905 073e
00000260: 2b9d 8b3e 89a1 19be edee 9ebd b5d9 61be
00000270: ec06 76be 7a2b f93c 4faf 82bd 448b a6bd
00000280: caad 53bd f630 2d3e a8fc 22bd 89f5 813c
00000290: 0efd 9bbd 3b18 903c ff3b 78bd 50af f43d
000002a0: 3569 c63d 6977 27be 4737 4c3e 92fe 423d
000002b0: 9900 383e 1a70 febd 2e9a b73d 537a d8bd
000002c0: 7b7b 12be a052 063e f2e9 b23d 278e aebd
000002d0: 413f a23d 52c0 463d 8c05 9f3d 1d6a ec3c
000002e0: 30b8 4fbd 9be8 c7bd cc66 9abd 1b5e 13be
000002f0: d7c4 be3d a884 8f3c 88d4 2e3d 1f72 5d3e
-0.02952657 0.05438359 0.09037218 -0.17654794 0.10661791 0.061001603 0.079875894 0.02085177
0.019098263 0.17269415 0.048162296 -0.085575186 0.12600204 -0.013089578 -0.06894129 0.08067911
-0.0028897326 -0.17009242 0.024205519 0.14481059 -0.10372142 0.1989569 -0.042800322 -0.05063693
0.0027391764 -0.02488603 0.1428184 -0.03931598 -0.04396637 0.007175846 0.18576966 -0.12297305
-0.06798226 0.097198114 0.14852533 -0.033318784 0.08591824 0.060017 -0.05984772 0.023594582
-0.024577769 0.00089550926 -0.14001821 0.0030294936 -0.10844756 0.01327308 -0.0399392 -0.0008445529
0.022243736 -0.03696979 0.02767492 -0.059411455 -0.09780272 -0.017501695 0.02781477 -0.045218468
0.022091176 -0.12964721 -0.059661765 0.025669578 0.14211357 -0.078873165 0.10749863 0.07827206
0.03726199 -0.00036074943 -0.044690084 -0.056513906 -0.07253829 -0.038187023 -0.1376317 0.08440516
-0.05909108 0.030443246 0.018884312 0.061134044 -0.06901447 -0.02057309 0.04622442 -0.021280369
0.080936484 -0.0020717767 -0.12387723 -0.048279617 0.16805896 -0.03230242 -0.076730594 0.10976253
-0.12702313 -0.19398911 -0.024380758 0.015932165 -0.13806412 0.029073406 0.08734442 -0.12897176
-0.03327928 -0.07365349 -0.119003735 -0.11494864 -0.04539167 0.0070031164 0.04762157 -0.069239296
0.061003998 -0.04051922 0.06413676 -0.018595476 -0.08167033 -0.007768437 -0.13954937 -0.014939749
-0.15762155 -0.047121227 -0.08868721 0.0063871285 0.09706631 -0.079817 0.14197397 -0.021707365
-0.0025588674 0.04366808 -0.015620154 0.026511922 -0.075488836 0.11914035 0.08829118 0.05362429
-0.1233184 0.072019294 0.3143563 -0.13504997 0.05690416 0.17363578 0.06977136 -0.02763851
0.05177952 -0.07291736 0.07771855 0.08637617 -0.12163658 0.05668897 0.14161135 -0.07334661
-0.1660251 -0.13160735 -0.042541403 -0.009065005 0.1160239 0.028375935 -0.10737417 0.13185538
0.27268347 -0.15003027 -0.07760415 -0.22055705 -0.24026078 0.030416239 -0.06381094 -0.081320316
-0.05167941 0.16913208 -0.039791733 0.01586415 -0.07616626 0.017589679 -0.06060409 0.11947501
0.096880354 -0.16354145 0.19942962 0.04760606 0.17968978 -0.124237254 0.08964954 -0.105702065
-0.14304917 0.13117456 0.08736028 -0.08523207 0.07922221 0.048523255 0.0776473 0.028859193
-0.050712764 -0.09761163 -0.07539138 -0.14391367 0.09314888 0.01751931 0.042683154 0.21625565

rnn.weight_ih_l1 f4 [192, 64]
00000000: a56a b73c 872c ee3c f1e4 093d dafb 9f3d
00000010: f13c 17bd 0980 23be 1601 b23c 6507 e93d
00000020: 9c81 b8bd 76ef 213d bd99 4f3e 51e4 a4bc
00000030: a26f ad3d 7355 c1bd 7f60 8a3e 84b4 63bb
00000040: cdd9 ad3b a1dd b93d fd7d 48bd f0d4 0cbd
00000050: 928d 233d 9895 253c 15df 163e bc90 d83d
00000060: b9f0 0abe e796 14bd dd9f c5bd 04cb 8cbe
00000070: aba0 2a3e 0040 26be 695e 313d bb74 a53d
00000080: e72f 90bd 8405 c53d b727 a83e bf67 b03c
00000090: be03 ccbc 90f7 d63d bb10 a83e d0aa 8cbd
000000a0: a4ed 173e f436 be3d dd10 bc3d b351 ac3d
000000b0: 2873 09bc e46d c33d b025 423d 3c3d 2b3e
000000c0: 277c d83c 1f6a c63c abf5 bfbd c4f4 6b3d
000000d0: ea85 123e 8b25 ed3d 10c0 3b3e 559a 1e3d
000000e0: d8e7 96bd 8e90 b73e 1be2 fc3d 32ad 13bd
000000f0: b701 483e 4439 4bbe bee9 b43d 9128 c6bd
00000100: d433 8c3d 115c 1ebe 40ed 0f3e 45b6 523d
00000110: a7e1 4c3d f6c1 453d b8c9 433d 8510 9dbd
00000120: e379 eebd 9069 a6bd 32f5 303e f8a5 a6bd
00000130: 9895 04be bbcd 393d 96c4 69bd 0b57 2f3c
00000140: a93f 073d 5f4e 91be df7e 09bd a986 9ebd
00000150: 5f48 a8be 1a2d 003e 03e4 973d 4029 a3be
00000160: ed66 e0bd 6609 e5bd b26b 903d 4427 89bb
00000170: e866 38be 75ff 253e 1074 303d 6327 29be
00000180: d906 20be 236a 923d b66c ab3d c48a 533c
00000190: b45e d13d 30b1 4cbc 09d0 7dbd befb 1b3d
000001a0: af94 de3c e4c7 89bd a4e2 e8bd 36e0 7bbe
000001b0: f33f 9fbe b901 bbbd a7ff 0c3e b8dd 3e3d
000001c0: f40a e63d 89a3 633d 9157 acbd 8734 26bd
000001d0: 8deb a0bd 6035 2ebb 443f 5dbc 147d 55be
000001e0: 766d b73d 9305 523d 7eb4 533d 955b ccbd
000001f0: e0fd 4dbe c85e 40be a1d2 c5bd e80a a9bd
00000200: da04 84bc 2232 39be be28 c13d 2f3a 09be
00000210: 4831 d4bc e674 023e 3c07 3bbe cf40 97bc
00000220: cf26 31be c9f0 963d e2b6 963d 3d63 d33d
00000230: c63e 053e eb1f 14be 43c6 8cbd 5912 3d3e
00000240: dc3b f9bd 427a 413d 73df 0f3e 8183 8d3c
00000250: 2d0e 543d 77cf da3d 56c8 4abe b309 833e
00000260: 6edb 83bd 2d68 aebd 9e82 093e d0cf 203d
00000270: f038 053e fbed 8dbd 1743 543d 8e11 85bd
00000280: 4d35 b03d d318 c53d 3807 c8bb 5f21 5fbd
00000290: eae6 a13d edb6 bbbd a58d d9bc 5e0d 1bbd
000002a0: 39ee 0e3d 93de 8e3d 5a2f cdbe 7b3f 21be
000002b0: 17a3 10be b696 19be 8234 6e3d a45d 113c
000002c0: 3f4b a4bd 0ff5 03bd 758f a0bd 7dcc f1bd
000002d0: f8af 703c 7dff 02be fa66 323e 9c25 593e
000002e0: cfdf 55bd b018 c23c d693 1bbe 66e5 293e
000002f0: 3ec6 2ebe fdd7 473e d01a 9ebd 6df7 8ebc
00000300: b478 673d 64fe d0bd 34ad 8dbd 838e 4e3d
00000310: fc80 e3bd d2d3 56bd d300 02be fa11 5ebe
00000320: 434a b43d da2f 16be be94 8a3c 625f 063e
00000330: a287 473e 54f6 ed3d 7f2d a63d c6e1 6c3a
00000340: 9316 6d3d e00a ea3d 2911 e2bd 0ca4 48bc
00000350: 9888 043e 9713 0f3e fca1 1bbe 344d e03d
00000360: 7915 ddbd 6c87 e93d c53b 233c fdbd 02be
00000370: 1ee3 3cbd ccef 243d 8f48 da3c 29b4 f73b
00000380: 16cc 0e3e 0666 0cbe c158 f9bd 9fab 163d
00000390: c012 65bc 076b c1bd b18a bc3d 1d13 11bc
000003a0: fd13 9fbc 0507 aebd 3821 3fbd cf80 123d
000003b0: b346 54bd e3ed 1bbd b3b2 c23b 7ef6 67bd
000003c0: e765 103c ceab 17bd 281b b53d 427c 9f3d
000003d0: 15d4 e93d 661e 0b3e a812 483d b66e 72bd
000003e0: ca97 7d3d b9bb 3bbb cb19 fe3c 22d1 42bc
000003f0: 3eb3 213c 6125 87bc 1419 59bd c438 12be
0.02238972 0.029073967 0.0336656 0.07811709 -0.036923353 -0.1596681 0.021729033 0.113783635
-0.09009096 0.03953501 0.2027349 -0.020128401 0.08468558 -0.09440126 0.27026746 -0.0034745047
0.005305505 0.090754755 -0.048948277 -0.03438276 0.039929934 0.010106467 0.14733537 0.10574481
-0.13568391 -0.036276724 -0.09649632 -0.2749864 0.16662852 -0.16235352 0.043302927 0.08078905
-0.07040387 0.09620193 0.328428 0.021533845 -0.024904128 0.104964375 0.32825264 -0.068685174
0.14836746 0.09287825 0.09182904 0.084140204 -0.008389272 0.09542444 0.047399223 0.16722578
0.026426388 0.024220524 -0.09373029 0.057606474 0.14308897 0.115794264 0.18334985 0.0387214
-0.073684394 0.35852474 0.12347814 -0.036053844 0.19531904 -0.19846064 0.08833645 -0.09675706
0.06845823 -0.15464808 0.14055347 0.051443357 0.050019886 0.04828068 0.047799796 -0.076691665
-0.11644342 -0.08125603 0.17281035 -0.08137125 -0.1294769 0.045362215 -0.057072245 0.010701905
0.033019695 -0.28380105 -0.03356826 -0.07740528 -0.32867715 0.12517205 0.07416537 -0.3186741
-0.109571315 -0.11183433 0.07051791 -0.004185589 -0.18008006 0.1621073 0.043079436 -0.16518931
-0.15627612 0.0714915 0.08370344 0.012911502 0.10223141 -0.012493417 -0.061965976 0.038081877
0.027170507 -0.06727579 -0.11371353 -0.24597248 -0.31103477 -0.09131188 0.13769399 0.046598166
0.11232558 0.05557588 -0.084151395 -0.040577438 -0.07857428 -0.0026582107 -0.013503853 -0.20848495
0.08956425 0.051274847 0.051685803 -0.099784054 -0.20116377 -0.18786156 -0.09659315 -0.08254033
-0.016115595 -0.1808553 0.09431599 -0.13401102 -0.025902405 0.12739906 -0.18264478 -0.01846352
-0.1729996 0.07370145 0.07359101 0.103216626 0.13012227 -0.144653 -0.06873753 0.1846403
-0.121696204 0.047235735 0.14050083 0.01727462 0.05177133 0.10684102 -0.19802985 0.25593337
-0.06438337 -0.08515964 0.13428733 0.039260685 0.13010001 -0.06930157 0.051821794 -0.06497489
0.08603916 0.096238755 -0.006104376 -0.054475185 0.079053715 -0.0916575 -0.0265568 -0.037854545
0.034895156 0.069760464 -0.4007519 -0.15746872 -0.14124714 -0.14998898 0.058155544 0.008872423
-0.080221646 -0.032216128 -0.07839862 -0.11806581 0.014690392 -0.12792774 0.17422095 0.21205753
-0.052215394 0.023693413 -0.15193114 0.16591415 -0.17067811 0.19515987 -0.07719958 -0.017451966
0.056511596 -0.10204771 -0.069178015 0.05042888 -0.11108586 -0.0524481 -0.12695627 -0.21686545
0.08803227 -0.14666691 0.016916629 0.13122323 0.19485334 0.11619249 0.081141464 0.00090363284
0.057882857 0.114278555 -0.11038429 -0.012246143 0.12942731 0.13972317 -0.15198511 0.10952225
-0.10795111 0.11402783 0.009962981 -0.12767787 -0.046115033 0.04026775 0.026645927 0.0075593186
0.1394504 -0.13710794 -0.121751316 0.036784764 -0.013981521 -0.09444242 0.09206141 -0.008854655
-0.01941871 -0.084974326 -0.04666254 0.035767373 -0.051825237 -0.038068663 0.0059417128 -0.056631558
0.008813358 -0.03702908 0.0884307 0.07787372 0.114174046 0.13585815 0.048845917 -0.059187613
0.061912335 -0.0028645827 0.031018158 -0.011890681 0.009869395 -0.016497316 -0.053002432 -0.14279467

rnn.weight_hh_l1 f4 [192, 64]
00000000: 7834 a6bd 9ebd 8f3e e038 483e 893e 293b
00000010: 1811 88bd e2fd 9ebd f9a3 a9bd b992 083e
00000020: 4820 a9bc cbfd ddbd a19a 31bd 842c 70bd
00000030: e317 83bc 74ef e8ba 2992 bfbc f66e 0bbe
00000040: 76ac a33d 906a b8bd c6b5 4f3c 2621 1bbe
00000050: effb 01bc 285d 2a3e 7a26 f33d b7e4 0f3e
00000060: 069a 833d 090c d5bc f05d dfbd cfbd d63d
00000070: 4a4d 153b 5cda b9bd 55bd 4e3d 5919 b1bd
00000080: 8a43 e03d d99b b43d 65cf 98bd 9b85 b03d
00000090: 70bf 39be c513 4d3d 5bc1 d9bc 1266 bb3d
000000a0: 0b74 2bbd 669d da3c 2667 863e 1e42 8f3d
000000b0: 8bd9 26bd 78b5 563d 0736 0cbe 7b83 183d
000000c0: d4d6 373d 057c a1be 6a36 7a3e f55e 47bd
000000d0: 4e94 26bd f60c bc3d 0b87 423d 1aee 82bc
000000e0: 4205 b0bd c7a7 6c3c 6452 503d 888c 973b
000000f0: 6976 293e 0736 af3d 4511 e7bd d066 12be
00000100: 2873 03be f99d d3be 57cf 9abe 4b78 38bd
00000110: 3003 dd3d 504e 87bd e8a1 89bd 0fdd 8b3d
00000120: c682 5dbb 7893 24be 3aad d53d c7d6 e83d
00000130: c1ee eabd ce83 1cbc a322 d83d f7e9 503e
00000140: 7570 0d3e 02a1 b93c dbd6 3b3e af03 a53e
00000150: fe18 953d 6f43 cd3d 4b70 b93c 319f a9bd
00000160: b9df 23be c013 9ebb 1acd 803d 88cd 003e
00000170: 6ac8 d13d bdfb 263e 4100 0a3e cd0a 8cbd
00000180: df6a 04bd 6d5a bd3e 631e 293d 2ea0 34bc
00000190: 920e 5f3c 2b01 97bc aa92 323e 8870 8dbd
000001a0: fe7a 2c3d 90a7 de3d 8c4f c9be 5116 613e
000001b0: bcf5 6b3e cf86 eabd 1e07 22bd 60ba b7bd
000001c0: 5a68 453d 128c cf3d c86b 50be 9f8c 0d3e
000001d0: ab02 ae3b 5161 55bd a17a acbe f70f 183e
000001e0: 9f2a 82be 43a9 9e3d c2f3 aebd f342 8bbd
000001f0: 81cb 22be 9fb5 c83c 4ee8 7cbe e6df dc3d
00000200: 1187 863d 88c1 1ebe e382 fbbd 281a 18be
00000210: e2e3 2bbe dea2 f83d 6ef5 cdbd 847a 333d
00000220: 43f7 81be 27aa c6bd 31f0 a4bd e5f5 95bd
00000230: f083 a7bd a1bc f6bb bfb6 f63d 3676 2cbd
00000240: eedf 44bd 1c29 6fbc 4e76 3d3e 393d 693c
00000250: 5dfe 7cbd 95e2 713d 20d9 b3bd 5a84 803c
00000260: 714b 95bd c7a7 9a3e 5b04 89bc 5139 8e3d
00000270: e41c 9ebc e838 d0bc 0315 43bd 3dd9 103d
00000280: d3a2 4bbc a6dd fb3d 7dbb d8bd 5450 fc3d
00000290: 93c8 d13c e6ac 2dbd 5673 d53d 2647 c03c
000002a0: 132a 773d 6ee5 ce3d 59aa a3be 4083 5d3d
000002b0: cb19 08bd 3efa ea3c 7dac 473d ed50 8bbd
000002c0: 4f9b dd3b 5d8b dd3d 7660 953c 4db8 bcbd
000002d0: a2e3 02be 1c0b 97bc 374d 033d 3568 b33d
000002e0: 244e 283e 5e97 8b3e 1597 ffbd 1127 2f3e
000002f0: 8358 e9bc b328 bfbd 8c63 ca3b 4747 3d3d
00000300: c216 91bc 3f14 4b3e 741d 04bd 4eef dcbb
00000310: a16a 283e 85a3 a5bd 5222 96bd 19c4 64bd
00000320: 2b6c 423e 5aee 0b3e af42 9fbd ea59 89bb
00000330: 390f a5bc db7a 86bd aa69 093d 8565 09be
00000340: f6f8 2ebd eff4 f83d 58a2 7abd 8401 433d
00000350: cb33 e83c a3b9 31be 9160 ea3c 2097 dabd
00000360: 93c6 073e efa5 103e bb6c f73d 51ea 55be
00000370: 8b97 2dbe cf6b 633d 35af d5bd 7d5e 143e
00000380: 40d9 1bbe f213 b3bd eaa6 033e 58c5 d4bd
00000390: 12c5 a6bd 898a 833d 6907 6fbd 3214 9cbd
000003a0: b35b eabd e39a 6b3d 70b5 0a3b 6746 05be
000003b0: c407 913c 6f5b 09be 4a0c 433c e917 a13d
000003c0: bcc9 a3bd 7b40 563d 0f7e dd3d b6b9 d5bd
000003d0: 206d debd d400 afbc a706 efbc c5cc 8fbc
000003e0: 59f4 b5bd 69e1 62bc 91ee 02be d82a 25bd
000003f0: 2a0b 083e 4210 cbbd f446 a5bd 34f7 60bd
-0.08115476 0.28074354 0.19552946 0.0025824627 -0.066438854 -0.07763268 -0.082832284 0.1333722
-0.020645276 -0.10839423 -0.043360356 -0.058636203 -0.016002601 -0.0017771558 -0.023385124 -0.13616547
0.07991879 -0.090047 0.0126776155 -0.15149364 -0.007933601 0.16637099 0.11872573 0.14052092
0.06425862 -0.026006715 -0.10906589 0.10485422 0.0022781664 -0.09074852 0.05047353 -0.08647413
0.10950382 0.08818788 -0.07461432 0.08619233 -0.18139434 0.05006768 -0.026581457 0.09150328
-0.041858714 0.026686382 0.2625057 0.06995033 -0.04073481 0.052419156 -0.13692485 0.037234765
0.04488261 -0.31539932 0.2443482 -0.048674542 -0.040668778 0.091821596 0.04749207 -0.015982676
-0.08594753 0.014444298 0.050859824 0.004624907 0.16549076 0.08555227 -0.11282591 -0.14297032
-0.12836897 -0.4133146 -0.30236313 -0.045036595 0.107916236 -0.06606734 -0.06720334 0.06829273
-0.003379987 -0.1607188 0.10433431 0.113690905 -0.1147132 -0.009552909 0.105534814 0.2040175
0.1381243 0.022659782 0.1834368 0.32229373 0.072801575 0.100226276 0.022636553 -0.082823165
-0.16003312 -0.0048241317 0.0628912 0.12578404 0.10243304 0.16306968 0.1347666 -0.068379976
-0.032328483 0.36983052 0.041288745 -0.011024518 0.013614314 -0.018433174 0.1743876 -0.06906229
0.042109482 0.10871804 -0.39318502 0.2198117 0.23042959 -0.11451494 -0.03955757 -0.08971095
0.04819522 0.10134138 -0.20353615 0.13823174 0.0053103766 -0.05209476 -0.33687308 0.1484984
-0.25423142 0.07747128 -0.08542587 -0.06799879 -0.15897943 0.024500666 -0.24697992 0.10784893
0.065687306 -0.15503514 -0.12280824 -0.14853728 -0.16786149 0.121404395 -0.100565776 0.043818012
-0.25383958 -0.09700423 -0.080536254 -0.07322291 -0.08179462 -0.0075298105 0.12046575 -0.042104922
-0.04806512 -0.014597204 0.18502161 0.014235788 -0.061766017 0.059053976 -0.08781648 0.01568811
-0.0728978 0.3020613 -0.01672571 0.06944526 -0.019300885 -0.02541776 -0.04762746 0.035363425
-0.012428957 0.122981355 -0.105826356 0.12320009 0.025608337 -0.042401217 0.10422389 0.023471426
0.06034286 0.10102354 -0.31965902 0.054080248 -0.033227723 0.028683778 0.048748482 -0.06802545
0.006762899 0.10817597 0.018234473 -0.0921484 -0.12782148 -0.018437915 0.03205606 0.0876011
0.16436058 0.27263921 -0.124799885 0.17104746 -0.028484588 -0.09333935 0.0061764177 0.046210553
-0.017711047 0.19831942 -0.03225465 -0.0067423945 0.16446926 -0.080878295 -0.07330765 -0.055851076
0.18986575 0.13665143 -0.07776391 -0.004191627 -0.02014886 -0.065664016 0.033548035 -0.13417633
-0.042717896 0.121560924 -0.06118998 0.047608867 0.02834501 -0.17355971 0.0286105 -0.10673356
0.13259344 0.14125799 0.120812856 -0.20890166 -0.1695234 0.055522736 -0.10433809 0.1448917
-0.15219593 -0.08744039 0.12856641 -0.10389203 -0.08143057 0.06422908 -0.058356676 -0.076210395
-0.114432715 0.05752076 0.0021165274 -0.13015138 0.017703898 -0.13413785 0.011904785 0.078658886
-0.07997462 0.052307587 0.108150594 -0.10435812 -0.10860658 -0.0213627 -0.029177977 -0.017553696
-0.08884496 -0.013847687 -0.12786318 -0.040324062 0.13285509 -0.0991521 -0.08070174 -0.05492325

rnn.bias_ih_l1 f4 [192]
00000000: cd96 aa3d 3032 eebd e266 543d 7db1 023e
00000010: f6ae debc 7b9d 8b3d 9705 a3bb d14e 7fbc
00000020: 5c00 7a3d a8be 93bc 476f 9d3d eaf2 2a3e
00000030: fad5 333e d859 013e 252b 433d 2148 a93d
00000040: 21e6 e6bd bbeb e6bc 4b20 ce3d 916d f43d
00000050: 7964 9e38 08ba 58bd 3837 343d f47d d5bb
00000060: 74f8 bf3d 4140 d13d d9f6 823d 0480 c93d
00000070: b40e 17bd 2941 f23d 6308 0abd a856 463d
00000080: 1b62 80bd a406 ac3d 9b2c 60bd 898c 923c
00000090: fe2e 26bd 2040 f53d 8506 f63d 9ad3 ae3c
000000a0: c8b8 0abc 74aa d2bc db60 66bd 9808 dabb
000000b0: 0852 85bd fbf0 73bd c432 d1bb 35f3 693d
000000c0: 0678 463d 8896 fbbd 9360 0cbd 58b9 34bd
000000d0: 0d16 04be 5fd4 553b 947f a9bb 4d77 de3d
000000e0: a240 82bd c0c5 4d3c 3f34 49bd e3d6 68bd
000000f0: b87f 973c 3541 913d 7b85 c43d 19fb 773d
00000100: 0ad9 fdbd a2ca 713e 698a 47bd 4511 59bd
00000110: 02d1 213e 5cc4 063e 1cb9 1bbe d8b5 56bd
00000120: 11bb 58bd 67e0 d0bc 8ad3 14bd 18fb 8bbd
00000130: e7ab afbd 53dd 50bd 7664 a2bc 5025 243e
00000140: 2631 a83e 99fc 923d b403 aabd a7c8 ac3d
00000150: ec28 41bd 8bef 103e b047 44bd 28c2 14bd
00000160: 875d 903e d9ff 233d fc44 963d 70d6 803d
00000170: 01ce abbd 1e52 95bd d32d e2bd 14ad 023e
00000180: 613b 053e 65b3 763e 11fd 4f3d bb28 ccbd
00000190: 3e6f 303e 96ab 923e 1097 9d3d 4b84 843c
000001a0: e11d 043e e85d 423c 6cbe 503c c09d 953e
000001b0: 2fd9 653e 58f6 f33d 44e1 c33d 5908 0ebd
000001c0: 2fe2 b1bd ce5a 873d c4d8 1a3c 5d8b d03d
000001d0: 298b a43e 0131 6ebd e048 793e e0a1 53bc
000001e0: 5d80 1a3c eb7f 003e 5bdf e1bc d72b c63d
000001f0: b098 133e 80a9 1cbe be60 7d3e b31a 683e
00000200: 1ae9 80bd b05f 02be 1036 fb3c 8ab0 033e
00000210: 839a 8dbd 61b4 b5bd 45ca 5c3d 00d2 cb3d
00000220: 2538 2d3c c301 a2bd 82d5 413b c441 acbd
00000230: 4595 d0bc 173a 07be ca6b edbd 47e6 a83d
00000240: 49c6 9abd df0a d23d 100e 543c 8bd9 633d
00000250: c230 f33c c5a6 a53d 2e15 003e cc05 0fbd
00000260: 7022 f43d bb5f 603c ca1a aa3d 0afa a6bd
00000270: de44 6ebd de37 653b 7f21 ffbd 191d d7bd
00000280: 1b6a fabd b600 c2bd 9bf1 b2bd 0ef4 a1bd
00000290: 6c12 1e3c 5c0a cb3c 4c19 58bc 44d6 743d
000002a0: 85e8 fcbc 0fa8 953d 2252 9f3d c1c7 683d
000002b0: 8039 e83c 982e 6abd 0073 aabd e506 853d
000002c0: 51e2 b7bd a208 76bd 4a1d 10bd 7fea 443c
000002d0: cf5b 883c 7a35 373d d295 82bd a212 f63c
000002e0: 1fdb 09bb 4028 df3d be02 c3bd eff3 24bd
000002f0: d3c6 96bc 65f8 9e3d cd22 0f3d 77aa 55bb
0.08329544 -0.11630666 0.05185593 0.12763019 -0.027183037 0.068171464 -0.0049750316 -0.015582756
0.0610355 -0.018035248 0.0768724 0.16694227 0.17562094 0.12631929 0.047648568 0.082657106
-0.11274362 -0.028188577 0.10064753 0.11934961 7.5527416e-05 -0.05291179 0.043997973 -0.006515259
0.093735605 0.102173336 0.06394739 0.0983887 -0.036879256 0.118288346 -0.033699404 0.048422486
-0.06268712 0.08399704 -0.05473004 0.017889278 -0.04057216 0.119751215 0.12012962 0.021341134
-0.008466907 -0.025716044 -0.056244712 -0.0066538565 -0.06509787 -0.05955599 -0.0063842256 0.057116706
0.048454307 -0.12284571 -0.034271788 -0.04412207 -0.12899037 0.0032627804 -0.005172679 0.108625986
-0.06359984 0.012559354 -0.04912209 -0.056845557 0.018493518 0.070925154 0.09595772 0.0605422
-0.123949125 0.23612455 -0.048715983 -0.052994985 0.15802386 0.13160843 -0.15207332 -0.052419513
-0.052912775 -0.025497628 -0.036334552 -0.06835002 -0.0857771 -0.05099232 -0.019823294 0.16029859
0.32849997 0.071770854 -0.083014876 0.08436709 -0.047158167 0.14153878 -0.04791993 -0.036317974
0.28196356 0.040038917 0.073373765 0.06290901 -0.083889015 -0.07291053 -0.110438965 0.12761337
0.13010933 0.24091871 0.050778452 -0.09968706 0.17229936 0.28646535 0.076948285 0.016176363
0.12902023 0.011863209 0.012740713 0.29221916 0.2244613 0.11912221 0.095644504 -0.03467593
-0.08685719 0.066091165 0.009451095 0.101828314 0.3213742 -0.058152203 0.24344206 -0.012917012
0.009430018 0.12548797 -0.027572324 0.096763305 0.14413714 -0.15299034 0.24743935 0.22666435
-0.062944606 -0.12731814 0.030665427 0.12860313 -0.069142364 -0.08872295 0.053903837 0.09952164
0.010572468 -0.07910492 0.0029576723 -0.08410981 -0.025461802 -0.13205753 -0.11592825 0.08247047
-0.07557351 0.1025598 0.012942806 0.055627387 0.029686335 0.080884494 0.1250808 -0.034917638
0.11920631 0.013694699 0.08305891 -0.0815316 -0.058171146 0.0034975926 -0.12457561 -0.10503597
-0.12227269 -0.09472792 -0.08737489 -0.07907878 0.009647947 0.024785213 -0.013189625 0.059774652
-0.030872593 0.07307445 0.077793375 0.056831125 0.02834773 -0.05717334 -0.08322716 0.06495456
-0.08978713 -0.060066827 -0.035184182 0.012018799 0.01664534 0.044728734 -0.06376232 0.030038182
-0.0021035147 0.10896349 -0.095220074 -0.040271696 -0.018405354 0.07762221 0.034945298 -0.0032602826

rnn.bias_hh_l1 f4 [192]
00000000: 4a38 013d 8f5d 06bc 85a1 bcbd d720 133e
00000010: cbc4 d73c 235d abbd 1df3 a13d e631 30bd
00000020: 51f7 0d3d 50c4 83bd bd27 8ebd f61e f13d
00000030: 1e99 903c 9272 f4bd 0fb7 40bd 3fdd 65bd
00000040: 42c3 67bb 0866 a33d 65c0 ffbd cbd6 9d3d
00000050: ad96 d53d 89d8 653d 2f13 02be d42b a6bd
00000060: 7660 a43d 6541 10bd 8036 1fbd a1ce c23d
00000070: da8c c2bd 35b8 f7bd cde9 f9bc 2baa a6bc
00000080: 836b efbd 08eb 01be 9a64 923c 232a a53d
00000090: 9e3f df3b 7def 023e b55f 0d3d 5024 1d3e
000000a0: e51c 0c3b 597d 79bc bd87 a9bd dedd e93d
000000b0: 9e65 be3d d036 87bd 475b 543d 4ef3 8b3b
000000c0: 4d5d 19bd f2d9 d73c 851d 42bd f9ca 4abd
000000d0: 2efe ce3d ebfb 6bbd 1e08 843c 1ab8 db3c
000000e0: 2c8a 133c 9d43 c0bd 9250 e23d afab 2e3c
000000f0: 9bd5 67bd bc76 393d 7ae4 12bc f191 c439
00000100: b108 8fbd c4d8 aa3e 985f 25bd b5ae bd3c
00000110: e45b a33e 3e6c 043e ad7a aebd b319 003c
00000120: de02 8c3c e1fb 963d 6e15 1a3e ea35 413d
00000130: e5e3 e43d 7498 abbd b181 34be 41b1 973e
00000140: a123 5f3e bd1a 75bd 0e59 7c39 5464 9c3d
00000150: 9cc0 e9bc 32cf 3f3d 7dc0 98bd ecd3 313d
00000160: 489b 323e b0ff f43d a544 af3a cbe9 513d
00000170: 150e 683d 915d 99bd 426e de3c 58db ee3d
00000180: 834d bb3d 630a a03e f092 083e 84a6 88bc
00000190: cbb0 213e c59b ae3e acf8 f63d db3b d0bd
000001a0: 7551 093e c50f 5fbd 2f43 d83d 78a1 873e
000001b0: 13ac 843e 9dd1 173e 8625 dc3c d206 c9bd
000001c0: b4a3 63bc 5f90 a53c e92c b23d 3df8 c1bc
000001d0: d593 a33e c94b a13c a85f 8e3e 8346 f73c
000001e0: 26e0 19bc 5e4a f83d d0d9 18be 7312 893e
000001f0: 0c22 ba3d 741d 8abd a392 6d3e 3811 8e3e
00000200: 6037 d73d f2f5 14be 8779 40bd fc84 913d
00000210: 7f80 993d f6c6 fb3b 6e82 a43d f768 efbb
00000220: b129 9e3a 6775 043e 2620 353d 883e 733d
00000230: a7d9 a63d 898d 173d e5a5 fdbd 05e2 43bd
00000240: 9cdb a0bc 64c1 b93d 7bd0 ad3c 35ff ae3b
00000250: b2e5 ec3d 62e2 9bbc e31c 73bd 53a3 9b3a
00000260: 1088 dfbb 99e5 4a3d a8db 83bd 08c6 683d
00000270: e39b 8a3d ec08 27bd 023f 09be fb10 d63d
00000280: 8773 d23c 88ff 993c 6798 c53d 6d6a 96bd
00000290: 5f63 e83b 26af 433d 6821 3abd 617a a1bd
000002a0: 579b cabd 5f6e 78ba 0686 b0bd 82eb de3d
000002b0: 1f98 b53d d3f6 eb3d 83e4 d03d d4ba 153c
000002c0: ee76 36bd b3db c73d bebc bbbd b947 753d
000002d0: f940 fabd 5b5a 00bc 1349 393d 15d9 e83d
000002e0: 8926 a5bd f96a b63d de35 94bc 31b8 66bd
000002f0: 0883 d5bd ba3e d0bc ae71 f0bd d71b 19bd
0.031547822 -0.008201017 -0.09210495 0.14367996 0.026338955 -0.08367374 0.07907698 -0.043016337
0.034659687 -0.06433928 -0.06941173 0.117734835 0.017651137 -0.11935915 -0.04704958 -0.0561192
-0.0035364185 0.07978445 -0.12487868 0.07706984 0.1042913 0.056114707 -0.1270263 -0.08113828
0.08026211 -0.035218615 -0.038870335 0.095120676 -0.094995216 -0.120956816 -0.030506993 -0.020344814
-0.11690428 -0.12687314 0.017870236 0.080646776 0.0068130037 0.1278667 0.0345151 0.15345883
0.0021379527 -0.015227639 -0.08277843 0.11419271 0.09296726 -0.066022515 0.05184486 0.0042709475
-0.037442494 0.026349042 -0.047391433 -0.049509976 0.10107075 -0.057613295 0.016117152 0.026821185
0.009005111 -0.09387896 0.11050524 0.01066105 -0.056600194 0.04527925 -0.008965606 0.00037492768
-0.0698408 0.33368504 -0.04037437 0.023154596 0.31906044 0.12931916 -0.08519492 0.007818627
0.017091211 0.07372261 0.15047237 0.047170557 0.1117628 -0.083786875 -0.17627598 0.29627421
0.21790935 -0.059839953 0.00024065768 0.076363236 -0.028534226 0.046828456 -0.07458589 0.043414995
0.17442048 0.11962831 0.0013371898 0.051248353 0.056654055 -0.074885495 0.027152184 0.1166293
0.091456436 0.31257924 0.13337302 -0.016680963 0.15790097 0.34103218 0.12059149 -0.101676665
0.1340998 -0.0544584 0.10559689 0.26490378 0.25912532 0.14826055 0.026873361 -0.09815754
-0.01389401 0.020210443 0.08699972 -0.02367794 0.31948724 0.019689457 0.27807355 0.03018499
-0.00939182 0.121235594 -0.14926839 0.26771888 0.09088525 -0.06743899 0.23200469 0.27747512
0.10508609 -0.14546946 -0.046990898 0.07105443 0.07495212 0.00768363 0.0803269 -0.007306214
0.0012066868 0.1293541 0.044220112 0.059385806 0.08146983 0.037000213 -0.123851575 -0.04782297
-0.019635968 0.090700895 0.021217575 0.0053404816 0.115672484 -0.019028846 -0.05935372 0.0011874236
-0.00682164 0.049535368 -0.064383805 0.056829482 0.06768014 -0.040779993 -0.13402942 0.104524575
0.025689853 0.018798605 0.09648209 -0.07344518 0.007091924 0.047774456 -0.045442015 -0.0788467
-0.0989291 -0.0009476896 -0.08619313 0.10884763 0.088669054 0.11521687 0.10199835 0.009138782
-0.044547014 0.09758701 -0.09166859 0.059882853 -0.12219424 -0.007834042 0.045235705 0.1136953
-0.080639906 0.08907122 -0.018092092 -0.056328002 -0.10425383 -0.025420535 -0.11740433 -0.037380066

rnn.weight_ih_l2 f4 [192, 64]
00000000: f738 083e 8624 f23c caf0 823e 5688 9e3d
00000010: c3ec 123d 6ef7 74bd 1371 2cbc 759e 23bd
00000020: 3f0c 1e3d 3190 01bc 79b2 253d b177 f4bd
00000030: e51c 313d 60b6 9ebd 69f5 f03c d148 61bd
00000040: 3c2a 1c3d 7478 c43d fd06 be3b adf1 ad3d
00000050: bb33 f43b 5878 d53d d328 06be 39e1 8ebd
00000060: 0115 cdbb 1074 0bbd 5c49 0ebe 63da f9bd
00000070: 267a 053d b81e 013e c07b 0abc 550b d7bd
00000080: 0431 8d3d 56b3 30be 58ba 46be d581 3e3e
00000090: ff25 363e 677f 8f3d 9dec 5cbd 2124 843d
000000a0: c898 083d 61cc d03d 6256 f53d eeee 3cbe
000000b0: 38ce 803c 923a 233e 70de e4bd d176 26bd
000000c0: 1531 e5bd bfed 503d fab4 2c3e c2f7 07be
000000d0: b690 6ebd ed4c 50bd e4a8 a03d 55b1 c83c
000000e0: 77cb 803d a71f d3bd c75f 19bc 17ec 25be
000000f0: 272b 11bd 79bc 99bd f7c1 e23d 239b 20be
00000100: b5e8 d3bc 6c9a d83e 1263 ac3d 2b6e 24be
00000110: 6c0e 713e fe33 bcbd 88d0 c7bd 77fd 4abd
00000120: 0172 5fbc d3c9 5a3d b856 77bc a958 bb3c
00000130: 9566 c3bd 4d0e 333b e131 7bbc 1e5c 29bd
00000140: d8df 283e 9af0 a03d f027 d4bd 9f66 34bc
00000150: e891 4ebc c2bf e6bd bce2 10bd dc5e 773d
00000160: 4afa 303e 1ee0 0fbd db51 9cbd 0b83 9dbd
00000170: 9a8e 743d 9466 71bd 3d13 86be 2019 aa3d
00000180: 9e8d c0bc 43d9 5abd 4151 86bb bd64 223e
00000190: 57db de3d 9918 003e d2a5 b0bc a940 37bd
000001a0: 1cb6 383d 5af0 1abe 4b73 473e 6df9 53be
000001b0: f664 7f3d 43ef 063e d25e 37bd 2e54 67bd
000001c0: 0f46 83bc 89bb aa3d 3c54 173e 846a 553d
000001d0: e56b 57bc 23c0 13bd cba4 0c3e 5a93 b6bc
000001e0: 01df 603e b228 fc3d 4653 563d 4f6e 8b3d
000001f0: 7632 2a3e 21ae 14be 3743 863d fbf1 4abc
00000200: 882d d73d abca 3bbe 31a2 de3d 0612 31be
00000210: c1f7 953d f587 4ebd eb70 41bc 1a34 f23d
00000220: cae6 f5bc e4d5 1dbe 39e5 21bd cbb5 d8bd
00000230: a75e c5bc 050d 11bd c870 48bd 865c a0be
00000240: e885 09bc c402 c63c 8d0f 63bd f13d df3d
00000250: 6467 343c d67c e7bd e2cb a2bd fb8d 2abd
00000260: e92e bc3d 5c7f b4bd 380e 9fbd 55e4 213d
00000270: e68b 2ebd 315b bdb9 4cea 37b9 280d 8dbd
00000280: 73ee 20bd 1d83 01bc f376 e23d de1d 0c3e
00000290: 40f1 f03a 20b0 313d c230 b8bd 2a6a 413d
000002a0: 091f 763e 921d 29be 2711 07be cf0a 5d3e
000002b0: ae2d 88bd d60d 963e c143 7c3d 2ce7 b0bd
000002c0: 1503 49bd 597b a8bd 62fb c63d b972 33bd
000002d0: dfed f4bd 2160 e03b b111 c43d 7bc5 8c3c
000002e0: 1ab3 cfbc 3be2 bbbd 9ff7 40bc d927 adbd
000002f0: 4cfd b93c d832 ea3d 7316 523d 062a 40bd
00000300: 9e85 5d3d 75d2 c23c 29b6 003e cd1b 8bbd
00000310: cef8 89bd 1372 30be 5bb0 8ebd 0352 b9bd
00000320: f68a 6f3c 9bd5 bebb 5d8b 9bbb a615 9e3b
00000330: 272b 153d bfd3 d53c 07bb 6ebd b158 23bd
00000340: e6f5 6c3d 5701 bf3d 013d 883d ab35 7cbd
00000350: b835 dbbd 95b6 963d 4004 3a3d e6c2 45bd
00000360: 0990 b93d 1705 00be 598a 2e3d 526c 04bd
00000370: 1d6e 6b3d 434b a4bd a1de fbbd 9fa7 ccbd
00000380: 0846 67bd 9c16 a63c b2f4 cf3c 7678 8cbd
00000390: a405 fe3d d551 48bd aa53 2e3d 6d9c 8a3d
000003a0: 4c94 8d3d 3658 77bd 4fdb 163e f758 febd
000003b0: 1a40 7bbd 165d f73d 5b8e 56be 27a0 febd
000003c0: 3ec7 5cbd 2490 a13d 781a c63c 8419 03be
000003d0: b5e6 3fbe 9432 943d 6716 023e a63b 913c
000003e0: 29c0 103e ec60 bdbd d634 85bc 0fdd 683d
000003f0: 56bf c63d 428b 983d ff04 2d3e bc4f 16bb
0.1330298 0.029558431 0.25574332 0.07740848 0.035870325 -0.05980628 -0.010525006 -0.03994604
0.038585898 -0.007907913 0.040453408 -0.11936892 0.043240447 -0.07749629 0.029413896 -0.055001084
0.038126215 0.09593287 0.005799173 0.084933616 0.007452456 0.104233444 -0.1310151 -0.069765516
-0.0062586074 -0.034046233 -0.13895172 -0.12199857 0.032587193 0.12609375 -0.008452356 -0.10500208
0.068941146 -0.17255911 -0.19407022 0.18604214 0.17787932 0.07006722 -0.05393659 0.064522035
0.03334883 0.10195232 0.11979367 -0.1845052 0.015723333 0.15940312 -0.11175239 -0.040640656
-0.11191002 0.051007982 0.16865912 -0.13278106 -0.058243476 -0.050854612 0.07844713 0.024498621
0.06288808 -0.103087716 -0.009361214 -0.16203342 -0.035441544 -0.075066514 0.11072152 -0.1568418
-0.0258678 0.42305315 0.08417334 -0.1605765 0.23540658 -0.09189604 -0.09756571 -0.04955813
-0.0136380205 0.05341513 -0.015096359 0.022869425 -0.0954105 0.0027321756 -0.015331716 -0.041347615
0.1649164 0.07858391 -0.1035918 -0.011010795 -0.012608029 -0.11267044 -0.03537248 0.0603932
0.17282978 -0.035125844 -0.076328 -0.0769101 0.059706308 -0.058935717 -0.26186553 0.083055735
-0.023505028 -0.053429853 -0.0040990417 0.15858741 0.108816795 0.12509383 -0.021563444 -0.0447394
0.045095548 -0.1513075 0.19477575 -0.20700617 0.062352143 0.13177209 -0.044768162 -0.056476764
-0.016024617 0.08336551 0.14778227 0.052103534 -0.013148283 -0.036071908 0.13734739 -0.02228706
0.21960069 0.123124495 0.05232551 0.06808149 0.16620812 -0.1451955 0.06555789 -0.012386794
0.10506731 -0.1833903 0.10870779 -0.17292032 0.07322646 -0.050422627 -0.011806707 0.11826344
-0.030017275 -0.15413624 -0.039525244 -0.10581549 -0.024092985 -0.035412807 -0.04893568 -0.3132059
-0.008393742 0.02417124 -0.055434752 0.10900486 0.011010978 -0.113031074 -0.07949044 -0.04163931
0.09188635 -0.088133544 -0.07766384 0.039524395 -0.042613886 -0.00036116832 -0.00017539522 -0.06887275
-0.039289903 -0.007904795 0.11057844 0.13683268 0.0018382445 0.043380857 -0.08993675 0.047220387
0.24035276 -0.16515186 -0.13190137 0.21586154 -0.06649338 0.2930743 0.061588053 -0.086378425
-0.049075205 -0.08226652 0.09715916 -0.04381058 -0.11959433 0.006847397 0.09573687 0.01718401
-0.025353957 -0.091740094 -0.0117777875 -0.08454866 0.02270379 0.11435479 0.05129094 -0.046915077
0.054082505 0.023781994 0.12569489 -0.06792412 -0.06736909 -0.17231016 -0.06967231 -0.090488456
0.014620533 -0.0058238036 -0.004746838 0.004824358 0.036418106 0.026101945 -0.058283832 -0.039879505
0.057851695 0.093264274 0.066522606 -0.06157462 -0.107036054 0.073590435 0.04541421 -0.048281573
0.09060676 -0.12501942 0.042612407 -0.032329865 0.05747806 -0.080221675 -0.122983225 -0.09992909
-0.05646327 0.020274453 0.025385235 -0.068589136 0.124034196 -0.048906166 0.042560257 0.06768117
0.06913051 -0.06038686 0.14732097 -0.124193124 -0.06134043 0.120783016 -0.20952742 -0.124328904
-0.05390095 0.07888821 0.024182543 -0.12802702 -0.18740351 0.072362095 0.12703858 0.017728638
0.14135803 -0.09247002 -0.016260546 0.056851443 0.09704463 0.07448436 0.16896437 -0.002293571
