model/sequential-model.pth (torch, 403146 bytes, 18 tensors)

rnn.weight_ih_l0 f4 [192, 64]
0	0x3d7ebbb2	0.06219072
1	0xbc48c0c1	-0.012252987
2	0xbd4be94a	-0.04978303
3	0x3d9bdab9	0.076100774
4	0xbca7c7e7	-0.020481063
5	0xbd1fa85a	-0.038978912
6	0xbd38e392	-0.045138903
7	0x3dd1d94d	0.10246525
8	0xbdbdf58d	-0.09275351
9	0xbb3c7878	-0.0028758328
10	0xbe47e02c	-0.19519109
11	0xbdc35a26	-0.09538679
12	0xbd7d245f	-0.061802264
13	0x3df6d9b7	0.120532446
14	0xbd89870a	-0.0671521
15	0xbdd2a4d8	-0.10285348
16	0xbc228655	-0.009919723
17	0xbdca9445	-0.098915614
18	0xbe1396f5	-0.14413054
19	0xbd725dfc	-0.05917166
20	0xbdbbcf60	-0.09170413
21	0xbd30d61a	-0.043172933
22	0x3c883da9	0.016630964
23	0x3c8a8dfa	0.016913403
24	0x3def29a2	0.11677863
25	0x3c44a261	0.012001605
26	0xbbffe6fe	-0.007809519
27	0xbdbb53d6	-0.0914685
28	0x3d8ca737	0.06867831
29	0x3cdbf860	0.026851833
30	0x3e134f92	0.14385822
31	0x3deb8de0	0.1150167
32	0xbd3fae47	-0.046797063
33	0x3dfcf866	0.12352066
34	0xbd33931e	-0.043841474
35	0x3e1d4eb1	0.1536205
36	0xbdd4a998	-0.1038391
37	0x3de7c371	0.11316574
38	0xbd278396	-0.040896975
39	0x3e1ad16f	0.15118955
40	0xbe406189	-0.18787207
41	0xbd4e43e8	-0.05035773
42	0x3bd45698	0.0064800493
43	0xbd845644	-0.06461766
44	0xbd74b779	-0.059745286
45	0x3db6a008	0.08917242
46	0x3d75fae1	0.06005371
47	0x3dd7855f	0.105234854
48	0xbc1ddb6f	-0.009634837
49	0xbcda650f	-0.026659517
50	0xbcf0ccd6	-0.029394548
51	0xbdcecfa7	-0.100982
52	0xbc9dc499	-0.019258784
53	0x3d4b8bdb	0.049693923
54	0x3e0ddf35	0.13854678
55	0xbd8a0322	-0.06738879
56	0x3d160f3a	0.036635615
57	0x3da61686	0.08109765
58	0x3d392669	0.045202646
59	0xbcbacc62	-0.022802535
60	0xbd725b8d	-0.05916934
61	0x3d5eb6be	0.054373495
62	0x3d31d09e	0.043411843
63	0xbc74e0a8	-0.01494614
64	0x3e1e5f90	0.15466142
65	0x3d9e1f90	0.07720864
66	0xbdc65491	-0.096840985
67	0xbc783b7e	-0.015150903
68	0x3d8e3a51	0.06944717
69	0xbe0fa0ca	-0.1402618
70	0x3d25b2e4	0.040453807
71	0xbe017190	-0.12640977
72	0xbdfc48df	-0.123185866
73	0xbd593878	-0.05303237
74	0xbc719aa5	-0.014746343
75	0xbdc4e220	-0.096134424
76	0xbd3c83bf	-0.04602408
77	0xbdc907b7	-0.098159246
78	0x3d78b31d	0.06071769
79	0xbdffc508	-0.124887526
80	0x3d569318	0.052386373
81	0x3c92354f	0.017847685
82	0xbce038aa	-0.02737077
83	0xbcebb9fa	-0.028775204
84	0xbd596439	-0.053074095
85	0x3dbe0968	0.09279138
86	0x3d72f8c1	0.05931926
87	0xbcc023f7	-0.02345465
88	0xbd6d05e0	-0.05786693
89	0xbcb180e5	-0.021667907
90	0x3de3a608	0.11115652
91	0x3d2ebf4a	0.042662896
92	0xbd0fc783	-0.03510238
93	0xbddd8ac2	-0.108174816
94	0xbe05db24	-0.13071877
95	0xbc7f0360	-0.0155647695
96	0x3c770923	0.015077862
97	0xbdee5741	-0.11637736
98	0xbdb74c11	-0.089500554
99	0x3d9d651d	0.076853015
100	0xbc433765	-0.011915063
101	0x3d820cfd	0.063501336
102	0x3d6eeae4	0.058329478
103	0x3dd03e10	0.101680875
104	0x3dc1edaf	0.09469163
105	0xbd952278	-0.07281965
106	0xbdede03b	-0.11615034
107	0x3da694bc	0.081338376
108	0xbdda7c1d	-0.10668204
109	0x3d9e2d1a	0.07723446
110	0xbdd5e1d6	-0.104434654
111	0xbdbe59f8	-0.09294504
112	0x3d86660c	0.06562433
113	0xbe0f42cb	-0.13990323
114	0x3d0b047b	0.03393982
115	0x3d3fbccc	0.04681091
116	0xbcef40fb	-0.02920579
117	0x3c452317	0.012032292
118	0x3daad261	0.08340908
119	0x3dbc311d	0.09189055
120	0x3dc0923d	0.09402893
121	0x3bf1d8b7	0.0073805708
122	0x3d55eb10	0.052226126
123	0x3dbbbad4	0.09166494
124	0x3e012aba	0.12613955
125	0xbd93793d	-0.07200859
126	0xbc7a47bf	-0.015275895
127	0xbd49d9d8	-0.049280018
128	0x3e0944f8	0.13405216
129	0x3ddb83af	0.10718476
130	0x3ad35798	0.0016124127
131	0xbd68c135	-0.05682488
132	0x3d28871d	0.04114448
133	0xbd35c7ea	-0.044380106
134	0xbdc0a215	-0.09405915
135	0x3dbfcd0b	0.09365281
136	0xbd8b7eba	-0.068112805
137	0xbd9884b5	-0.07447187
138	0xbc7c3172	-0.015392648
139	0x3c1306db	0.008973802
140	0xbbfd496c	-0.0077297
141	0xbc21858d	-0.009858501
142	0x3ce710e4	0.028206296
143	0xbc962928	-0.018330172
144	0x3d4436d7	0.04790386
145	0x3b78a3d3	0.0037939444
146	0xbd5d534b	-0.054034512
147	0xbdaf550e	-0.08561145
148	0xbd6d4e08	-0.057935745
149	0xbde7cfb2	-0.113189116
150	0x3ca40d91	0.020026
151	0xbdac289a	-0.08406182
152	0xbdefb8c3	-0.117051624
153	0x3d91228e	0.07086669
154	0xbd407b80	-0.04699278
155	0x3d192e79	0.037397835
156	0xbcfff894	-0.031246461
157	0x3dde8105	0.10864452
158	0xba965760	-0.0011470132
159	0x3d99a067	0.075012974
160	0xbd91baee	-0.07115732
161	0x3e030fbc	0.12798971
162	0xbd07b13e	-0.033128016
163	0x3e16e284	0.14734846
164	0x3c981321	0.018563809
165	0x3d8f9116	0.07010095
166	0xbe08cd38	-0.13359535
167	0xbd9f730b	-0.077856146
168	0x3d9e3291	0.077244885
169	0xbcdf06d3	-0.027224934
170	0x3d980456	0.07422702
171	0xbdc35507	-0.09537702
172	0x3ca72127	0.02040155
173	0x3d4dac81	0.05021334
174	0xbc44921b	-0.011997725
175	0x3e168740	0.14700031
176	0x3d339567	0.043843653
177	0xbdcd81d3	-0.10034528
178	0x3de1ab9e	0.110190615
179	0xbe00f3cd	-0.12593003
180	0xbd3048fe	-0.04303836
181	0xbd9b70c1	-0.075898655
182	0x3da76f05	0.08175472
183	0xbbb2431e	-0.00544013
184	0x3d87df92	0.066344395
185	0xbd4c4028	-0.04986587
186	0x3d5e46fe	0.054266922
187	0x3d4cc1fe	0.049989693
188	0xbda18933	-0.07887497
189	0x39abcb52	0.00032767147
190	0xbd94a61a	-0.07258244
191	0xbd094d75	-0.033521134
192	0xbdce87a8	-0.10084468
193	0x3d283535	0.041066367
194	0x3bd9e80e	0.0066499775
195	0xbcd46aca	-0.025929827
196	0x3d689a70	0.056787908
197	0xbe0d541e	-0.1380162
198	0x3db241a6	0.08703928
199	0xbcc4341e	-0.023950633
200	0xbda4a5bf	-0.08039426
201	0xbdf30285	-0.11865715
202	0x3c037e9e	0.008025793
203	0x3dd123be	0.102118954
204	0x3e032d15	0.12810166
205	0xbd80688d	-0.062699415
206	0x3ce3a074	0.027786471
207	0x3d99d532	0.07511367
208	0x3c97074c	0.018436097
209	0xbc416b7f	-0.011805414
210	0x3d45d60f	0.048299845
211	0x3dc6b565	0.09702567
212	0xbde3a84d	-0.11116085
213	0x3d4f7405	0.050647754
214	0x3d9852b3	0.074376486
215	0xbd42ca46	-0.047556184
216	0x3d1775f3	0.03697772
217	0x3d7937ef	0.060844358
218	0x3d089479	0.03334472
219	0x3cc3e263	0.02391166
220	0x3d995d56	0.074885055
221	0x3c937aff	0.018002985
222	0xbd533b93	-0.051570486
223	0xbe17e283	-0.14832501
224	0xbde28fca	-0.11062582
225	0xbe4a68a5	-0.19766481
226	0x3d28650b	0.041111987
227	0x3e0f5a30	0.13999248
228	0xbe1ef880	-0.15524483
229	0xbdfbbc97	-0.1229183
230	0xbe191ad0	-0.14951634
231	0x3c3e4d00	0.011615038
232	0x3ccf8b63	0.02533502
233	0xbe0ac3ae	-0.13551208
234	0x3d12c8dc	0.035836086
235	0x3d90d11f	0.07071137
236	0xbde9e37b	-0.114203416
237	0x3c1e0482	0.009644629
238	0xbd926529	-0.07148201
239	0xbbf3578b	-0.0074262074
240	0x3c592a92	0.013254778
241	0x3dd2bd01	0.10289956
242	0xbdc0302e	-0.093841895
243	0x3cfdabd3	0.030965721
244	0xbd8833dc	-0.066505164
245	0xbdb31efb	-0.087461434
246	0x3d4a880b	0.049446147
247	0xbda97679	-0.0827455
248	0xbd99ad9b	-0.07503816
249	0xbe0a825c	-0.1352629
250	0x3e3f4ba3	0.18681197
251	0xbda159c5	-0.0787845
252	0xbcc6c54d	-0.024264002
253	0x3da9c1e2	0.08288933
254	0xbc9082bf	-0.01764047
255	0x3df59232	0.11990775

rnn.weight_hh_l0 f4 [192, 64]
0	0x3cab3ba8	0.02090247
1	0xbe6476b8	-0.22310913
2	0x3e4fd49a	0.20295945
3	0xbe39852d	-0.18117209
4	0xbe0849cd	-0.13309403
5	0xbd11b233	-0.035570335
6	0xbdc8231b	-0.09772321
7	0xbdfe7269	-0.12424166
8	0xbd439f58	-0.047759384
9	0x3e2992d2	0.16559914
10	0xbdecc894	-0.11561695
11	0x3d5b8c0e	0.053600363
12	0x3d65057a	0.055913426
13	0xbe18ec55	-0.14933904
14	0x3e0b1821	0.13583423
15	0x3e43456a	0.19069448
16	0x3e0647b6	0.13113293
17	0xbbdc1fd8	-0.0067176633
18	0xbe117f93	-0.14208822
19	0x3d30184d	0.042991925
20	0x3db98493	0.0905849
21	0xbd2c2f89	-0.04203752
22	0x3cba0787	0.022708667
23	0xbe2a1883	-0.16610913
24	0x3de09186	0.109652564
25	0x3d3c2eab	0.045942944
26	0x3c77d0bc	0.01512545
27	0x3d904636	0.07044642
28	0x3bfa7856	0.0076437397
29	0x3d5a158c	0.053243205
30	0xbde127fa	-0.10993953
31	0xbd993e12	-0.07482542
32	0x3dfc0400	0.123054504
33	0xbe47f1b0	-0.1952579
34	0x3ca2cf5e	0.019874271
35	0xbd456161	-0.04818857
36	0x3dbaf923	0.0912955
37	0xbcf0094b	-0.029301306
38	0xbc8d530a	-0.01725151
39	0xbe227566	-0.15865096
40	0xbe1b9446	-0.1519328
41	0x3d6a4f6a	0.05720464
42	0x3d87e366	0.0663517
43	0x3dd65092	0.10464586
44	0x3dc50793	0.09620585
45	0x3cdbac7e	0.02681565
46	0x3e252c6d	0.16130228
47	0x3d89ebed	0.067344524
48	0x3dd79ba6	0.105277345
49	0x3c3acb0d	0.01140095
50	0xbe0a7779	-0.13522138
51	0xbd645b79	-0.055751298
52	0x3d8eed81	0.06978894
53	0xbe1dca02	-0.15409091
54	0x3dfabe51	0.12243331
55	0x3da0f440	0.07859087
56	0x3e5f4012	0.21801785
57	0x3ce6ec7b	0.028188935
58	0xbda881d2	-0.08227886
59	0xbd0bf369	-0.03416768
60	0x3d7e2951	0.06205112
61	0x3e247f86	0.16064271
62	0xbae806cc	-0.0017702221
63	0x3ded0aa7	0.115742974
64	0xbdfc670f	-0.12324344
65	0x3de50518	0.11182612
66	0xbd359783	-0.044333946
67	0x3d5f7dd2	0.05456335
68	0xbdc373a7	-0.09543543
69	0x3d58ae9c	0.052900895
70	0x3dbc1f11	0.09185613
71	0xbce40d3e	-0.027838346
72	0xbd563660	-0.05229795
73	0x3ddcad62	0.10775258
74	0xbcf9d931	-0.030499073
75	0x3dc829cd	0.09773598
76	0xbc25dd92	-0.010123627
77	0xbd0f6341	-0.035006765
78	0x3c48a639	0.012246662
79	0xbdfb4eee	-0.12270914
80	0xbde31251	-0.11087478
81	0x3c94c5b9	0.018160688
82	0x3dc6542c	0.09684023
83	0xbc0e9f35	-0.00870495
84	0xbc17d462	-0.009266945
85	0xbdde00db	-0.10840007
86	0x3d607de1	0.054807547
87	0x3d3aa151	0.045564
88	0x3d48fc03	0.049068462
89	0x3d346e08	0.044050246
90	0xbd6550ee	-0.055985384
91	0x3dcc0345	0.09961561
92	0xbd90ff24	-0.07079914
93	0xbdce2d25	-0.100672044
94	0x3d798faf	0.060928043
95	0x3c6f4c84	0.014605645
96	0xbdde04e4	-0.108407766
97	0xbd50acf2	-0.050946184
98	0x3c25d4b4	0.010121513
99	0x3cbed372	0.023294184
100	0xbbae9c56	-0.0053286953
101	0x3e105c5b	0.14097731
102	0xbc9f7b89	-0.019468086
103	0xbcc1bb11	-0.02364877
104	0x3dce81f3	0.100833796
105	0x3d6f8053	0.05847199
106	0xbd4430c9	-0.047898088
107	0x3cef3eb9	0.029204713
108	0xbdbb7ffd	-0.09155271
109	0xbdb72364	-0.08942297
110	0xbdf40f59	-0.1191699
111	0xbdc26a11	-0.09492887
112	0xbe16b538	-0.14717567
113	0xbdf6f5b4	-0.12058583
114	0x3c6b7996	0.01437225
115	0xbe00ef05	-0.12591179
116	0xbda115c6	-0.07865481
117	0xbcb4ad52	-0.022055302
118	0xbd796aff	-0.060893055
119	0xbce2afdc	-0.027671747
120	0x3dbbbd92	0.09167017
121	0x3e0aa6c4	0.13540179
122	0x3c9a5402	0.018838886
123	0x3d7d665a	0.06186519
124	0x3c074835	0.008256962
125	0x3dd31fbb	0.103087865
126	0xbd23df9e	-0.04000818
127	0x3da3cfda	0.07998629
128	0x3d02fc95	0.031979162
129	0x3d17183d	0.03688835
130	0x3e1234d0	0.14277959
131	0x3d6e7309	0.058215175
132	0xbd825376	-0.06363575
133	0x3deed581	0.116618164
134	0xbd0e6f73	-0.034774255
135	0xbded171c	-0.115766734
136	0xbcb1d478	-0.021707758
137	0xbd12c4ab	-0.03583209
138	0xbd52e150	-0.051484406
139	0x3dc8c548	0.098032534
140	0x3d925e52	0.071468964
141	0x3da93b33	0.082632445
142	0x3de756ff	0.1129589
143	0x3ceef3c5	0.029168973
144	0x3be08b09	0.006852512
145	0x3d502139	0.050812934
146	0x3c81c0dc	0.015839033
147	0xbe3c79b4	-0.18405801
148	0x3cb102dd	0.02160781
149	0xbd8e9f27	-0.0696395
150	0xbd832979	-0.06404395
151	0xbe0d294f	-0.13785289
152	0xbd3b5d65	-0.045743365
153	0x3cbd015a	0.023071934
154	0x3d9d82a5	0.07690934
155	0xbdae3a17	-0.085071735
156	0x3d8a99c0	0.06767607
157	0x3db0c269	0.08630831
158	0x3e0a9e60	0.13536978
159	0x3d0cf615	0.03441437
160	0x3c61172c	0.013738435
161	0x3e112b62	0.14176705
162	0xbe2159ce	-0.15756914
163	0x3c4bcd81	0.012439133
164	0x3db4a0ed	0.08819757
165	0x3e1c53e3	0.15266375
166	0xbe0d73e9	-0.13813747
167	0xbb3a328c	-0.0028411476
168	0xbdd58621	-0.10425974
169	0x3ddf8c6f	0.109154575
170	0xbc8be88e	-0.017078664
171	0xbdd1c16c	-0.102419704
172	0x3cb1d1d0	0.021706492
173	0xbd208609	-0.039190326
174	0xbdfa153d	-0.12211082
175	0x3e0a7c20	0.13523912
176	0x3c14fb21	0.009093077
177	0xbdd951d0	-0.106113076
178	0x3defeb74	0.11714831
179	0xbdbb4e4c	-0.09145793
180	0x3ca2e4dc	0.01988452
181	0x3bdc8d72	0.006730729
182	0x3de4f6a1	0.11179853
183	0x3bb2d770	0.005457811
184	0xbd96d84e	-0.073654756
185	0x3da03196	0.07821958
186	0xbdb99d88	-0.0906325
187	0xbd5a99db	-0.053369384
188	0x3dcf5d9f	0.10125279
189	0x3db4431c	0.088018626
190	0x3be033c9	0.006842111
191	0xbd9a2fda	-0.07528658
192	0x3d201358	0.039080948
193	0x3ba8f515	0.005156169
194	0xbe356048	-0.1771251
195	0x3a609d05	0.00085683196
196	0x3d5f55ff	0.05452537
197	0xbdd612fc	-0.1045284
198	0xbd851977	-0.06498998
199	0x3d1403ad	0.036136318
200	0x3df135dd	0.11777852
201	0xbe1675ea	-0.14693418
202	0xbe18a395	-0.14906152
203	0x3d8b6973	0.06807222
204	0xbdc8cf98	-0.0980522
205	0x3dddbdf9	0.1082725
206	0x3da4892b	0.08033975
207	0x3dc2cc11	0.09511579
208	0x3d670763	0.05640353
209	0xbd44919c	-0.047990426
210	0x3d2f1584	0.04274513
211	0x3dcc3d55	0.09972636
212	0x3bc16c7a	0.005902824
213	0xbde2efb2	-0.110808745
214	0xbd3fbb01	-0.0468092
215	0x3de56e38	0.11202663
216	0x3d932bfb	0.07186123
217	0xbe096311	-0.13416697
218	0xbd3af2e6	-0.045641802
219	0x3d18ff2a	0.03735272
220	0x3e2db843	0.16964822
221	0x3c86b662	0.016444389
222	0x3ce661ba	0.028122772
223	0x3db23129	0.08700783
224	0x3cab451e	0.020906981
225	0xbcab05eb	-0.020876845
226	0x3d487009	0.04893497
227	0xbdf4d5b5	-0.11954824
228	0x3c9fd9e5	0.01951308
229	0xbca4bfae	-0.020110931
230	0x3d8d30a0	0.0689404
231	0x3e14a539	0.14516152
232	0xbcacdec3	-0.021102315
233	0xbd58ea71	-0.052957956
234	0x3dc92da1	0.09823156
235	0xbdf52175	-0.11969272
236	0xbd9365f5	-0.07197181
237	0xbddd4c31	-0.10805548
238	0xbcc984d6	-0.024599474
239	0xbd8348e5	-0.06410388
240	0xbe1e4d36	-0.15459141
241	0xbd29cbbc	-0.041454062
242	0x3d821539	0.06351704
243	0xbe0977b6	-0.13424572
244	0xbd918f82	-0.0710745
245	0x3d811da0	0.06304479
246	0xbda53077	-0.080658846
247	0xbd2fe805	-0.04294588
248	0xbc2dc62c	-0.01060633
249	0x3c48b249	0.012249538
250	0x3d6eeb00	0.058329582
251	0xbccc02ee	-0.02490374
252	0xbd269913	-0.040673327
253	0x3ccf3c50	0.025297314
254	0x3de8ec54	0.11373201
255	0xbc849f5d	-0.016189272

rnn.bias_ih_l0 f4 [192]
0	0x3d4ff761	0.05077303
1	0xbcb4f544	-0.022089608
2	0xbdde4c96	-0.10854451
3	0xbd794ffc	-0.060867295
4	0xbe0859e4	-0.1331554
5	0x3d899f74	0.067198664
6	0x3da65957	0.08122509
7	0x3e0858b6	0.1331509
8	0x3d9ab0df	0.07553267
9	0xbde3667c	-0.11103532
10	0xbda9e548	-0.08295685
11	0xbd696ea6	-0.05699029
12	0x3de402ab	0.111333214
13	0xbdc71a84	-0.09721854
14	0x3a261157	0.00063349813
15	0x3e0c173c	0.13680738
16	0x3dd25d03	0.10271647
17	0xbe1363ee	-0.14393589
18	0xbd712c1e	-0.058879964
19	0xbd8562d7	-0.06512993
20	0x3d60e496	0.054905497
21	0xbd493983	-0.049127113
22	0x3cf4d613	0.029887235
23	0x3c8ee7a7	0.017444445
24	0xbdc9ddea	-0.0985678
25	0x3d3477ba	0.044059493
26	0x38782845	5.916531e-05
27	0x3db81d06	0.08989911
28	0x3d86278f	0.06550514
29	0x3dcc762d	0.09983478
30	0x3b1c8ccf	0.002388764
31	0x3dc6216b	0.09674343
32	0xbb7c3f93	-0.0038490042
33	0x3ddba5fc	0.107250184
34	0x3d76a591	0.06021649
35	0x3dcb9a11	0.09941495
36	0x39bdb6cc	0.00036185083
37	0x3d61fa4f	0.055170354
38	0x3d45d2e4	0.048296824
39	0xbd8064ae	-0.06269203
40	0xbd4e075f	-0.0503
41	0xbd4d0efb	-0.050063115
42	0x3d0e4714	0.034735754
43	0xbc3fc205	-0.011703973
44	0x3d612e03	0.05497552
45	0xbe3b7584	-0.18306547
46	0x3d7e7e71	0.062132303
47	0xbdc4e286	-0.096135184
48	0x3e020958	0.12698877
49	0x3d9a0bcd	0.07521782
50	0x3e30ffce	0.17285082
51	0x3d83954f	0.06424963
52	0x3d413548	0.047169954
53	0x3d1ed0d9	0.03877339
54	0x3d49f6d1	0.049307648
55	0xbd8b3041	-0.06796313
56	0x3d4a91f7	0.04945561
57	0x3deb0c15	0.11476914
58	0xbde0db65	-0.10979346
59	0x3c1c7f07	0.00955177
60	0x3caf8ccf	0.021429447
61	0xbdb833cc	-0.089942545
62	0x3c27ed74	0.010249484
63	0xbc9d9a3b	-0.019238582
64	0x3dbbebf8	0.09175867
65	0x3d163732	0.036673732
66	0xbc8c5b39	-0.017133342
67	0x3dd2ad4c	0.1028696
68	0xbd07ac97	-0.03312358
69	0x3d90c10e	0.07068072
70	0xbc9a202a	-0.018814165
71	0xbdbdc973	-0.09266939
72	0x3cbb9ecd	0.02290287
73	0x3e1295f3	0.14315014
74	0xbd8ac04c	-0.06774959
75	0xbd30277e	-0.043006413
76	0xbd049136	-0.032365046
77	0x3ca86019	0.020553635
78	0xbdd707f5	-0.104995646
79	0xbd9f4f62	-0.07778813
80	0x3d60103c	0.054702982
81	0x3d4dc082	0.050232418
82	0x3ca2e3a4	0.019883938
83	0xbe03c74e	-0.12868997
84	0x3d373f69	0.044738207
85	0x3b4d82e3	0.0031358532
86	0x3ccae2c1	0.024766328
87	0xbdbad2f6	-0.09122269
88	0xbbf17633	-0.007368827
89	0xbbffdd41	-0.007808358
90	0x3ce7f413	0.028314626
91	0x3daf85f3	0.08570471
92	0x3da29977	0.07939427
93	0xbb510772	-0.0031895307
94	0xbd0e6103	-0.034760486
95	0x3d929c7c	0.07158753
96	0xbcf08db7	-0.02936445
97	0x3ca1f31a	0.01976924
98	0xbc6969f0	-0.014246449
99	0xbd03bf7a	-0.03216503
100	0xbd85036f	-0.064947955
101	0xbd1765d8	-0.03696236
102	0x3d74b01a	0.059738256
103	0x3e0439e1	0.12912704
104	0x3d4ac234	0.049501613
105	0x3e5f2051	0.21789671
106	0xbd1d08f9	-0.038338635
107	0x3d71cb60	0.059031844
108	0xbdb79eac	-0.08965811
109	0xbcf7051f	-0.03015381
110	0x3e37adaf	0.17937349
111	0xbd31c35a	-0.043399192
112	0xbd10a358	-0.035312027
113	0x3e3404ff	0.17580031
114	0x3d5b31cd	0.05351429
115	0xbdea49a3	-0.11439826
116	0xbd3e8ec2	-0.046522863
117	0x3e3ee803	0.18643193
118	0x3cd478c5	0.025936494
119	0xbdf07da1	-0.11742712
120	0x3e160b28	0.14652693
121	0xbdd96ded	-0.1061667
122	0x3c343068	0.010997869
123	0xbd7c28bb	-0.06156228
124	0xbd47ff6a	-0.048827566
125	0x3e1a65b5	0.1507786
126	0x3def65e1	0.11689354
127	0xbe0f3e5f	-0.13988636
128	0x3d02e94c	0.03196077
129	0x3c5a7195	0.013332744
130	0x3daf9c65	0.08574752
131	0xbd9a3be3	-0.07530954
132	0x3d8ea09e	0.06964229
133	0x3e0e31fa	0.13886252
134	0xbdba0e92	-0.0908481
135	0x3d5d4c1e	0.05402767
136	0x3d02d774	0.031943753
137	0x3dc728b1	0.09724558
138	0xbdb6f75c	-0.08933899
139	0x3c5399f6	0.012915125
140	0x3d46dff8	0.048553437
141	0xbd4f6d31	-0.050641242
142	0xbdda64d4	-0.10663763
143	0x3deb419b	0.114871226
144	0xbcf7e6fd	-0.030261511
145	0xbe18d0f2	-0.14923456
146	0xbcfcc2a3	-0.030854529
147	0x3d535eaf	0.05160397
148	0xbd8a3c45	-0.06749777
149	0x3de97575	0.11399356
150	0x3e08773b	0.13326733
151	0xbe11342a	-0.14180055
152	0x3c3ec931	0.011644647
153	0xbd745775	-0.059653718
154	0xbb373482	-0.002795488
155	0xbe485d0f	-0.19566749
156	0x3d1d2578	0.03836581
157	0xbdf61839	-0.12016339
158	0x3dc2bdc1	0.09508849
159	0xbc9e843f	-0.01935017
160	0xbb00baad	-0.0019642517
161	0xbcf99457	-0.030466242
162	0xbe13261a	-0.14370003
163	0x3d1eb505	0.038746852
164	0x3c2a871c	0.010408189
165	0x3e386b14	0.18009597
166	0xbcbbca18	-0.022923514
167	0x3d1366a0	0.035986543
168	0x3d5c45b5	0.053777415
169	0x3c8bfe76	0.01708911
170	0xbe158a3b	-0.14603512
171	0x3e0db59d	0.13838811
172	0x3d2918fd	0.041283596
173	0x3d39a1c0	0.045320272
174	0x3ca3f10c	0.020012401
175	0xbd8339aa	-0.06407483
176	0xbd99fa2e	-0.07518421
177	0xbdac91f3	-0.08426275
178	0x3e14e94b	0.14542119
179	0x3e1c68dc	0.15274376
180	0xbd468075	-0.04846235
181	0x3e0fb26d	0.14032908
182	0x3d5f4e4b	0.054518025
183	0x3da8e680	0.082470894
184	0x3d88f85f	0.06687998
185	0x3e3a5e30	0.18199992
186	0xbbacd133	-0.005273962
187	0xbdee4056	-0.11633365
188	0x3c9ca8e6	0.019123506
189	0xbd24dc59	-0.040249202
190	0xbc3bec5b	-0.011469926
191	0x3d684b91	0.05671269

rnn.bias_hh_l0 f4 [192]
0	0x3e0e8de7	0.13921319
1	0xbd191f7e	-0.03738355
2	0xbc6dcccc	-0.014514159
3	0xbd23191b	-0.039818864
4	0xbde15859	-0.11003179
5	0xbd925035	-0.071442045
6	0xbd6606e9	-0.056158934
7	0xbd90a4c9	-0.0706268
8	0xbce79706	-0.028270256
9	0xbcb7f1fb	-0.022454252
10	0xbd2f1779	-0.042746995
11	0xbd85272c	-0.06501612
12	0xbc7f5aa0	-0.0155855715
13	0x3c4c460a	0.0124678705
14	0x3c9ab7d2	0.01888648
15	0x3da1dfc1	0.07904006
16	0x3d0c5cf7	0.034268346
17	0xbd8c5c5d	-0.068535544
18	0xbd400ef1	-0.04688925
19	0x3e1c1e49	0.15245928
20	0x3d8d4bc0	0.06899214
21	0x3d7d978d	0.06191211
22	0xbd9c80a8	-0.07641727
23	0x3b86d7fb	0.0041151023
24	0xbe453c24	-0.19261223
25	0x3c49fe3c	0.012328681
26	0x3d5806ea	0.05274097
27	0x3e031e9e	0.12804648
28	0xbdb8ae97	-0.09017675
29	0x3dc36cbd	0.095422246
30	0xbc566771	-0.013086186
31	0xbcb37ed4	-0.021911062
32	0x3da9fc45	0.0830007
33	0xbc918afd	-0.01776647
34	0xbd1bd1ec	-0.038041994
35	0x3d0ecfcc	0.03486614
36	0xbdc1097b	-0.094256364
37	0x3d3afd12	0.045651503
38	0x3ba165be	0.0049254587
39	0x3e23acc4	0.15983874
40	0xbb8f081c	-0.0043649804
41	0xbded784d	-0.11595211
42	0x3dc4b775	0.09605304
43	0x3c106c6b	0.008814911
44	0xbda97542	-0.08274318
45	0xbc189929	-0.00931386
46	0xbd83a30a	-0.064275816
47	0x3dba9783	0.0911093
48	0x3d0b1ba9	0.033961926
49	0xbddd9d49	-0.108210154
50	0x3e1efc9b	0.15526049
51	0x3a8b3621	0.001062099
52	0x3d03bf38	0.032164782
53	0xbdb8a583	-0.09015944
54	0x3e13b365	0.14423902
55	0x3d4953c2	0.049152143
56	0xbe1c564e	-0.15267298
57	0xbc12f2f0	-0.008969054
58	0xbc2f24dd	-0.010689941
59	0x3cc95394	0.024575986
60	0xbd87b2cf	-0.06625902
61	0xbe054a76	-0.13016686
62	0x3ad3fef5	0.0016174006
63	0x3cc76402	0.02433968
64	0x3dd7b6ca	0.10532911
65	0x3e0121a8	0.12610495
66	0xbd9f61ef	-0.07782351
67	0xbd2fc254	-0.042909935
68	0xbddd75b1	-0.108134635
69	0x3e1317f0	0.143646
70	0x3d1b9b1a	0.037989713
71	0xbdc7bab7	-0.0975241
72	0x3e1f300f	0.15545677
73	0x3cb23e5b	0.021758249
74	0x3e030ed9	0.12798633
75	0x3dd20e7a	0.102566674
76	0x3df984cf	0.12183534
77	0xbd6197e3	-0.05507649
78	0xbcbc6207	-0.022995962
79	0xbddbb3cb	-0.10727652
80	0x3e0bb0f3	0.1364172
81	0xbd2f1468	-0.04274407
82	0x3d90e8d4	0.070756584
83	0x3c4c1af5	0.012457599
84	0x3c2bfdba	0.010497505
85	0xbc90ee0d	-0.017691636
86	0x3e3509b1	0.17679478
87	0x3db7e639	0.08979458
88	0x3d40bf47	0.047057416
89	0xbc8af163	-0.016960805
90	0x3cdf506d	0.02726003
91	0x3d92fa04	0.07176593
92	0x3db75da5	0.08953408
93	0xbe15cdb5	-0.14629252
94	0x3d726215	0.05917557
95	0x3d67529b	0.056475263
96	0xbd60c217	-0.0548726
97	0x3e09cc9d	0.1345696
98	0xbded3b84	-0.11583617
99	0x3c4861da	0.012230361
100	0x3dc64ee8	0.09683019
101	0x3d6b83e1	0.057498816
102	0xbd88c19c	-0.06677553
103	0x3bcfa229	0.0063364697
104	0x3d1d3a8d	0.038385917
105	0x3dc63378	0.09677786
106	0x3da5794b	0.080797754
107	0x3d94c236	0.07263605
108	0xbe0b7490	-0.13618684
109	0x3d8d1a39	0.06889767
110	0x3e3ca3cf	0.18421863
111	0xbdbc8ee2	-0.0920694
112	0x3d550bdb	0.05201326
113	0x3d12fe51	0.035887066
114	0xbcffca23	-0.031224316
115	0x3d82793e	0.06370781
116	0xbc1aaf8d	-0.009441269
117	0x3dacc293	0.084355496
118	0x3dd2229f	0.1026051
119	0x3d7de80a	0.061988868
120	0x3e04d770	0.12972808
121	0xbdc6020c	-0.09668359
122	0x3d8c7629	0.06858475
123	0x3d36d75e	0.044638984
124	0x3d76ad52	0.060223885
125	0x3d0046ee	0.031317644
126	0xbd1b8d6f	-0.03797668
127	0xbe0e592d	-0.13901205
128	0xbe2e63fe	-0.17030331
129	0x3de097ba	0.109664395
130	0xbd9f3107	-0.07773023
131	0x3b472578	0.0030387323
132	0x3c8c5ee3	0.01713509
133	0xbcdf3119	-0.027245091
134	0xbdacc8b5	-0.08436719
135	0x3e3264ef	0.17421316
136	0xbe0b8c29	-0.13627686
137	0x3d107f88	0.035277873
138	0x3c2cd2b0	0.010548279
139	0x3d1ab609	0.03777126
140	0xbdf4ad26	-0.11947088
141	0xbdd81626	-0.105510995
142	0xbed6ae85	-0.41930023
143	0x3e04395f	0.1291251
144	0xbc1b80bc	-0.009491142
145	0xbd982f3c	-0.07430884
146	0x3e34c8f4	0.17654783
147	0xbddc18ec	-0.10746941
148	0xbd0a5ece	-0.03378182
149	0x3e2a6c8a	0.16642967
150	0xbdc24dc8	-0.09487492
151	0xbd64debc	-0.05587648
152	0x3dc3b0a6	0.095551774
153	0x3df63789	0.12022311
154	0x3d55ab3e	0.052165262
155	0xbdde0c4a	-0.10842188
156	0x3cb223d1	0.021745594
157	0x3bbc5250	0.005747117
158	0xbcd8f37d	-0.026483292
159	0xbccdd190	-0.025124341
160	0xbddc1ac2	-0.10747291
161	0xbe094474	-0.13405019
162	0xbe8c852d	-0.27445355
163	0xbd63e66c	-0.05563967
164	0x3e801a17	0.25019905
165	0x3d6f7645	0.0584624
166	0x3dc173b3	0.09445896
167	0x3cdc9ba0	0.026929677
168	0x3e32531d	0.17414518
169	0x3d0a9866	0.033836745
170	0xbe62a272	-0.2213228
171	0xbb7ce839	-0.0038590564
172	0x3de42c2d	0.11141238
173	0xbd68c253	-0.056825947
174	0x3c7de128	0.015495576
175	0xbd833710	-0.06406987
176	0x3dc4583c	0.09587142
177	0xbe11d98c	-0.14243144
178	0x3e4ddf3c	0.20104688
179	0x3e833fea	0.256347
180	0xbe05c444	-0.1306315
181	0x3d90b5e7	0.07065945
182	0x3da133ca	0.07871206
183	0x3d338e40	0.043836832
184	0x3e081cf5	0.13292296
185	0xbae64839	-0.0017569131
186	0xbbce4337	-0.0062946337
187	0x3dd627e0	0.10456824
188	0x3cd4210c	0.025894664
189	0x3d884b05	0.06654934
190	0xbe03c031	-0.12866284
191	0x3d507cb7	0.050900187

rnn.weight_ih_l1 f4 [192, 64]
0	0xbe518da5	-0.2046419
1	0x3e27901f	0.16363572
2	0xbd88a842	-0.06672718
3	0x3d809f98	0.0628044
4	0xbd1cc242	-0.038271196
5	0x3dae8cb4	0.08522931
6	0x3daa4f8b	0.08315953
7	0x3e02de5a	0.12780133
8	0x3e7ac740	0.2449007
9	0xbe5aa41e	-0.21351668
10	0xbdf28c51	-0.118431695
11	0x3d821f67	0.06353646
12	0xbdd0f3e9	-0.10202772
13	0xbda91192	-0.082553044
14	0xbe1be355	-0.15223439
15	0xbbb3bd90	-0.005485244
16	0x3e879234	0.26478732
17	0x3c1868e4	0.009302352
18	0xbda2232e	-0.07916866
19	0x3ec03186	0.37537783
20	0xbd2f58f7	-0.042809453
21	0x3dda6e28	0.10665542
22	0xbd075f89	-0.033050094
23	0x3e18beb0	0.14916492
24	0xbdc487da	-0.09596224
25	0x3c4edaca	0.012625406
26	0xbd4ea978	-0.050454587
27	0xbd858297	-0.06519049
28	0xbd543285	-0.05180599
29	0xbd82fa5b	-0.06395408
30	0x3e32d0d9	0.17462482
31	0xbd91c874	-0.071183115
32	0x3cbc6b47	0.023000373
33	0xbe1ae90b	-0.15127961
34	0xbe03dbcb	-0.12876813
35	0xbdc2c52a	-0.09510262
36	0xbcf38bdc	-0.029729776
37	0xbdb80be6	-0.089866444
38	0x3db67612	0.08909239
39	0x3eb56b62	0.3543349
40	0xbd91386f	-0.07090842
41	0x3de07343	0.109594844
42	0x3ed0e550	0.40799952
43	0xbd790176	-0.06079241
44	0xbe074e94	-0.13213569
45	0x3ce7e1b0	0.028305858
46	0x3d8fcd02	0.07021524
47	0x3c58b05b	0.01322564
48	0xbe279c76	-0.16368279
49	0xbc3fb91f	-0.011701851
50	0x3de7a824	0.11311367
51	0xbe459a95	-0.1929725
52	0xbdf056f9	-0.11735339
53	0x3d5b51a8	0.05354467
54	0xbdd4dcb9	-0.10393662
55	0xbd759e37	-0.05996534
56	0x3de8dbb0	0.11370027
57	0x3b82c5fa	0.003990886
58	0xbe2ae304	-0.16688162
59	0x3dc6e351	0.09711326
60	0xbe1ddaf3	-0.15415554
61	0xbe1ebcc9	-0.15501703
62	0x3e08c3bd	0.13355918
63	0xbd42ed3f	-0.047589537
64	0x3e447f83	0.19189267
65	0x3d8d5a77	0.069020204
66	0xbd8e0d3b	-0.06936117
67	0x3d8ca85d	0.0686805
68	0x3dbb8de7	0.09157925
69	0xbd80fd8f	-0.062983625
70	0x3d5e2825	0.054237504
71	0x3dafdf8f	0.08587562
72	0xbe7e2dc0	-0.2482214
73	0x3ccd86ef	0.025088755
74	0xba565a03	-0.0008176865
75	0x3e020c07	0.126999
76	0x3c0c16f7	0.008550397
77	0xbb37c803	-0.00280428
78	0xbd9b5eed	-0.07586465
79	0xbe1e4230	-0.15454936
80	0x3d98d479	0.07462401
81	0xbe4ef714	-0.2021144
82	0x3d1c27c5	0.038123865
83	0xbe3abb93	-0.18235616
84	0xbe40d3c5	-0.18830784
85	0xbcd12871	-0.02553198
86	0xbe676bde	-0.22599742
87	0x3d76b50f	0.060231265
88	0x3da5dbfc	0.08098599
89	0x3de95458	0.113930404
90	0xbd2986ba	-0.04138825
91	0xbcd40610	-0.025881797
92	0x3e0d35bb	0.13790028
93	0xbdb0bfdc	-0.08630344
94	0xbda3753f	-0.07981347
95	0x3dc7bb92	0.09752573
96	0x39537a27	0.00020168033
97	0xbdf834ea	-0.121194676
98	0xbc981e2d	-0.018569076
99	0xbdd0db94	-0.10198131
100	0x3c0faf94	0.008769888
101	0xbde0d677	-0.10978406
102	0x3e7c3c13	0.24632291
103	0x3d98ecdd	0.07467053
104	0x3e85308a	0.26013595
105	0x3bdba8fb	0.0067034937
106	0x3e2dfc09	0.16990675
107	0xbd57f941	-0.05272794
108	0x3e29e0e6	0.16589698
109	0xbba15d40	-0.0049244463
110	0x3deb2f44	0.114836246
111	0xbd8c61c1	-0.068545826
112	0x3ca986dd	0.02069419
113	0x3d1e0547	0.03857925
114	0x3de396a1	0.111127146
115	0xbd976041	-0.07391406
116	0xbdf8612f	-0.12127911
117	0xbdb98daa	-0.090602234
118	0x3d025783	0.03182174
119	0x3db4d356	0.08829372
120	0xbd871413	-0.06595626
121	0x3de4661c	0.11152288
122	0x3b6fd874	0.0036597522
123	0x3e431530	0.19051051
124	0x3dc0c1a3	0.09411933
125	0x3df06b79	0.11739249
126	0x3c051ef2	0.008125054
127	0xbd98a3cc	-0.07453117
128	0xbd0b4d09	-0.034009013
129	0xbe972fa1	-0.29528525
130	0xbe00ef3e	-0.12591264
131	0x3d92576b	0.0714558
132	0xbe0f2476	-0.13978752
133	0xbd73c395	-0.059512693
134	0xbd60e2ce	-0.054903798
135	0x3ce30a04	0.027714737
136	0xbe305db3	-0.17223243
137	0x3de9b8e7	0.114122204
138	0xbdca6c54	-0.09883943
139	0xbd8ecb80	-0.06972408
140	0x3d55758d	0.05211406
141	0xbd8b2f82	-0.06796171
142	0xbe050c52	-0.12992981
143	0x3dc937a2	0.09825064
144	0x3d18575e	0.037192695
145	0x3dbd2189	0.09234912
146	0xbda48183	-0.08032515
147	0xbdc6a399	-0.096991725
148	0xbd08f5a1	-0.033437375
149	0xbc55f56d	-0.013059002
150	0xbe932203	-0.28736886
151	0x3db0de49	0.086361475
152	0x3b97d609	0.0046336693
153	0x3e1f384f	0.15548824
154	0x3d2a26d9	0.041540954
155	0x3cd84998	0.02640228
156	0x3de04b7a	0.10951896
157	0xbce9bb77	-0.028531773
158	0xbc1a29b5	-0.009409358
159	0x3bddb0d0	0.0067654625
160	0x3ca2c8c7	0.019871129
161	0xbc69162e	-0.014226479
162	0x3d88d606	0.06681447
163	0xbd745aa9	-0.059656773
164	0xbda1faad	-0.07909141
165	0xbdea78d3	-0.11448827
166	0x3eb43652	0.35197693
167	0x3d712ad8	0.05887875
168	0xbd8d6215	-0.06903473
169	0xbe94069d	-0.28911296
170	0xbe54b9db	-0.20774023
171	0xbcd9b1e0	-0.026574075
172	0xbcd41278	-0.025887713
173	0x3c37f423	0.01122764
174	0x3e3b7006	0.18304452
175	0xbe3588a1	-0.17727901
176	0x3e2b4fe7	0.16729699
177	0xbcb7ec8a	-0.022451658
178	0x3e2640ca	0.16235653
179	0x3cf8b9d3	0.030362045
180	0x3df48963	0.11940267
181	0xbcb28454	-0.021791615
182	0xba851fdb	-0.0010156588
183	0xbe2c83a0	-0.16847086
184	0x3a5f4e0e	0.0008518406
185	0x3d60d1eb	0.054887693
186	0xbd03a781	-0.032142166
187	0xbd817f56	-0.063231155
188	0xbe1d8fe7	-0.15386926
189	0x3d23ef3f	0.040023085
190	0x3c13da82	0.009024264
191	0xbdc47282	-0.09592153
192	0x3e3fefd6	0.18743834
193	0xbd51d429	-0.051227722
194	0x3e67f235	0.22650988
195	0xbdbc8cbc	-0.092065305
196	0x3d9a3da6	0.0753129
197	0x3e8d0d73	0.27549323
198	0xbc811eea	-0.015761811
199	0x3cfea17a	0.031082857
200	0xbe5fc557	-0.21852623
201	0xbe57ec1b	-0.21086161
202	0xbe87e48c	-0.26541555
203	0x3c06038f	0.008179559
204	0x3e063828	0.1310736
205	0x3c18a5de	0.00931689
206	0xbd8f4004	-0.06994632
207	0x3dec5f4a	0.115416124
208	0xbdda709a	-0.10666008
209	0x3cc47182	0.023979906
210	0xbe45560f	-0.1927111
211	0x3c952b51	0.018209131
212	0x3dc451fe	0.09585951
213	0x3de119a7	0.10991221
214	0xbe02b31e	-0.1276364
215	0x3c8b3ac1	0.01699579
216	0xbceab5c1	-0.02865112
217	0xbe4a3982	-0.197485
218	0x3bba039c	0.0056767
219	0x3de97a3c	0.114002675
220	0xbe6d94c3	-0.2320128
221	0xbdc933d0	-0.098243356
222	0x3c1f1b5d	0.009711114
223	0xbd8fc4f9	-0.070199914
224	0xbdb5585b	-0.08854743
225	0xbdd39e89	-0.103329726
226	0x3e3ecfca	0.18633953
227	0x3daec746	0.08534102
228	0x3d8321d6	0.06402938
229	0xbdafb250	-0.08578932
230	0xbe756e47	-0.23967849
231	0x3ebf9e38	0.374254
232	0x3d9f94ce	0.07792054
233	0xbdf904c7	-0.12159114
234	0xbd345b9f	-0.04403269
235	0x3bd56b16	0.00651301
236	0x3d4297ed	0.04750817
237	0x3cb2e426	0.021837305
238	0x3ce59452	0.028024826
239	0x3e90956e	0.28239006
240	0x3c8b6af2	0.017018769
241	0xbdf23c5c	-0.11827919
242	0x3cf8de69	0.03037949
243	0xbd4651aa	-0.048417725
244	0x3d9d0918	0.0766775
245	0xbd8e2e05	-0.06942371
246	0xbde5a499	-0.11213035
247	0xbd039048	-0.03212002
248	0x3ea92982	0.3303948
249	0x3c699d9b	0.0142587675
250	0x3de276ff	0.11057853
251	0x3cbd4322	0.0231033
252	0xbe87c197	-0.26514885
253	0xbe1be5fa	-0.15224448
254	0x3d29e8af	0.04148167
255	0xbe203890	-0.15646577

rnn.weight_hh_l1 f4 [192, 64]
0	0xbdb186a0	-0.08668256
1	0xbe147549	-0.14497866
2	0x3d8b7a7e	0.06810473
3	0x3e9691b5	0.2940804
4	0x3eb61ef9	0.35570505
5	0xbb403881	-0.0029330554
6	0x3dbbf4c3	0.09177544
7	0xbd37de14	-0.044889525
8	0x3dd25a3e	0.102711186
9	0xbc83e1a5	-0.016098807
10	0xbda039cb	-0.07823523
11	0x3b81b76b	0.0039586327
12	0x3d893dfa	0.06701274
13	0x3ad29f61	0.0016069227
14	0x3dd60f0d	0.104520895
15	0x3dd04af7	0.101705484
16	0x3cae0077	0.021240456
17	0xbd780830	-0.060554683
18	0xbd3c4322	-0.04596246
19	0xbde0b638	-0.109722555
20	0xbca05d28	-0.01957567
21	0x3d8e26d9	0.06941003
22	0xbe0642b7	-0.13111387
23	0x3e22e487	0.15907489
24	0x3d986904	0.07441905
25	0x3d473540	0.048634768
26	0xbe3f46e2	-0.18679383
27	0xbc66e83c	-0.014093455
28	0x3de937d0	0.113875985
29	0xbbd172b2	-0.0063918466
30	0x3e872cd5	0.26401392
31	0xbd929e57	-0.07159107
32	0xbe139a7b	-0.14414398
33	0x3ddd7d39	0.108149
34	0x3d631fa1	0.055450086
35	0xbe8edff5	-0.2790524
36	0xbd8e7468	-0.069557965
37	0xbe0774e5	-0.13228185
38	0xbdbb9f6b	-0.09161266
39	0x3d58f1ad	0.052964855
40	0xbe003e1b	-0.12523691
41	0x3d1a1370	0.037616193
42	0x3c41937e	0.01181495
43	0x3bfeb9db	0.0077736205
44	0xbd8d723f	-0.06906556
45	0xbdb70fb6	-0.089385435
46	0xbd9996b6	-0.07499449
47	0xbddef484	-0.108864814
48	0xbd49d26c	-0.04927294
49	0xbda39cd3	-0.07988896
50	0x3eaa02fc	0.33205402
51	0xbe69ace1	-0.22819854
52	0xbe3795b2	-0.17928198
53	0xbe04ebeb	-0.1298062
54	0x3d35f16f	0.044419702
55	0x3e085c81	0.13316537
56	0xbe762495	-0.24037392
57	0x3dea440d	0.11438761
58	0x3d960ba1	0.07326437
59	0xbe7b0045	-0.24511822
60	0xbe94574e	-0.28972858
61	0x3ea393f2	0.3194881
62	0x3e82a9d4	0.25520194
63	0xbe0c5b57	-0.13706718
64	0xbd33f616	-0.043935858
65	0xbe827a12	-0.25483757
66	0x3e0209d1	0.12699057
67	0x3cf883b2	0.030336235
68	0x3dd53114	0.104097515
69	0xbd737a44	-0.059442773
70	0x3e3539fd	0.17697902
71	0xbe4dc6a7	-0.20095311
72	0xbdb672bf	-0.08908605
73	0xbb76d32c	-0.003766249
74	0x3e4abcfe	0.19798657
75	0xbe11f6a6	-0.14254245
76	0xbd1a3e71	-0.037657205
77	0xbdf600f4	-0.120119005
78	0xbe85b70b	-0.26116213
79	0x3d642ba6	0.05570569
80	0x3d9cba44	0.07652715
81	0x3d0f7c9e	0.035030954
82	0xbd2e552b	-0.04256169
83	0xbe144034	-0.14477617
84	0x3cd80da4	0.026373692
85	0xbe94a361	-0.29030898
86	0x3e56671d	0.20937772
87	0xbe93b072	-0.28845555
88	0xbe0e665d	-0.13906236
89	0x3b3cfacc	0.002883601
90	0xbd26ef80	-0.04075575
91	0xbd8febf4	-0.07027426
92	0xbdef49db	-0.11684009
93	0xbdcf4240	-0.10120058
94	0x3d875be3	0.06609323
95	0xbda38c09	-0.07985694
96	0xbd10a475	-0.03531309
97	0x3c2460d6	0.010032853
98	0xbd61f38c	-0.055163905
99	0x3d76ce08	0.06025508
100	0xbc9dd336	-0.019265752
101	0x3d32b1c3	0.043626558
102	0xbda9aa8f	-0.082844846
103	0xbe2ebb79	-0.17063703
104	0x3d5ef9c8	0.05443743
105	0x3d64fa06	0.055902503
106	0xbdac40f8	-0.08410829
107	0x3cca943d	0.024728889
108	0xbe15fb14	-0.1464656
109	0x3dde31b0	0.10849321
110	0x3c896239	0.016770469
111	0xbe14e62b	-0.14540927
112	0xbe1d6e4d	-0.15374108
113	0x3db5157d	0.08841989
114	0x3df95dcc	0.121760935
115	0xbe09f3d6	-0.13471922
116	0xbe30e727	-0.17275678
117	0xbe449cfe	-0.19200513
118	0xbd820245	-0.06348089
119	0x3bfaffbd	0.007659881
120	0xbe21a09f	-0.15783928
121	0xbd4c3e23	-0.049863946
122	0x3d6ba6f7	0.057532277
123	0x3e14c907	0.14529811
124	0xbe0e1cf2	-0.1387823
125	0x3da5b045	0.08090261
126	0x3e08f15c	0.13373321
127	0x3e38db38	0.18052375
128	0xbd9b1460	-0.075722456
129	0x3e34672a	0.17617479
130	0x3d72714d	0.059190083
131	0x3d197709	0.037467036
132	0xbce3275f	-0.027728735
133	0xbe7196f6	-0.23592743
134	0xbe0a1899	-0.13485946
135	0xbbdf81fe	-0.006820916
136	0x3e5a1c1a	0.21299782
137	0x3ded6ec7	0.11593395
138	0x3d11b76f	0.035575327
139	0xbcc04b1f	-0.02347332
140	0x3b6733a5	0.0035278585
141	0xbdef97af	-0.11698853
142	0x3d0bbe59	0.034117077
143	0x3d0200c9	0.03173903
144	0x3d6c7fe9	0.057739172
145	0xbce1d413	-0.027566945
146	0xbd9e6cca	-0.077355936
147	0xbd8ef62d	-0.06980548
148	0xbc040e25	-0.008060013
149	0x3dfe4428	0.124153435
150	0x3ca1d4a5	0.019754717
151	0x3e354ccf	0.17705081
152	0xbd98f259	-0.07468099
153	0xbd85aadd	-0.0652673
154	0xbe1443fa	-0.14479056
155	0x3e5fafd7	0.21844421
156	0xbd3b30b2	-0.045700736
157	0x3e25f81d	0.16207929
158	0xbd66f595	-0.05638655
159	0x3d4530f9	0.048142407
160	0x3b938c6c	0.0045028236
161	0x3dbe347c	0.09287354
162	0x3e849469	0.25894478
163	0xbd180545	-0.0371144
164	0xbdf62735	-0.12019197
165	0xbe6cbd7d	-0.23119159
166	0xbdf69126	-0.120394036
167	0x3e4346c3	0.19069962
168	0x3dd1c3e6	0.10242443
169	0x3c9be5ff	0.01903057
170	0xbe5a111b	-0.21295588
171	0xbe2e6e32	-0.17034224
172	0x3da87dc2	0.082271114
173	0xbd729a70	-0.059229314
174	0xbd25c561	-0.04047144
175	0x3bebaf64	0.007192539
176	0x3e59a81d	0.21255536
177	0xbe9a532c	-0.3014158
178	0x3ba29317	0.004961382
179	0xbe1aedda	-0.15129796
180	0xbd291b8c	-0.041286036
181	0xbcce70fe	-0.025200363
182	0xbc1d02af	-0.009583159
183	0xbe0793a9	-0.13239922
184	0xbc824a69	-0.015904622
185	0xbd443110	-0.047898352
186	0xbc02d0b0	-0.007984325
187	0xbdc9976d	-0.09843335
188	0x3e4a955f	0.19783543
189	0x3e1e309a	0.15448228
190	0xbdf788c7	-0.12086635
191	0xbd62bed1	-0.055357758
192	0x3e0c3f65	0.13696058
193	0x3d6d1379	0.0578799
194	0x3e604575	0.21901496
195	0x3cdc548c	0.026895784
196	0xbe2eba43	-0.1706324
197	0xbd0abb0a	-0.03386978
198	0x3cd5835d	0.026063615
199	0x3db5d4ac	0.088784546
200	0xbdb8a05c	-0.09014961
201	0xbd8bba4b	-0.06822642
202	0x3e20d4c1	0.15706159
203	0x3db9a385	0.09064392
204	0xbe5e396e	-0.21701595
205	0x3a93ab74	0.0011266307
206	0x3da2aa4a	0.07942636
207	0x3d9b1d96	0.075740024
208	0xbd833561	-0.064066656
209	0x3e4c19d1	0.19931723
210	0x3cf7dfce	0.030258086
211	0x3d9c09cb	0.07619055
212	0x3d83f9d4	0.06444135
213	0x3e0ee56c	0.13954705
214	0x3e8f64bd	0.28006545
215	0x3e4d4b38	0.20048225
216	0x3de91961	0.11381794
217	0xbddc05fc	-0.10743329
218	0x3d9f0902	0.0776539
219	0x3e1166cd	0.14199372
220	0xbbf56793	-0.0074891536
221	0x3dc4dadb	0.09612056
222	0x3d33c5a7	0.043889668
223	0x3e844b7f	0.2583885
224	0x3ce658b3	0.028118467
225	0x3e412b85	0.18864258
226	0x3eb9cf3f	0.3629093
227	0xbe34dbe2	-0.17662004
228	0x3dc1b9ed	0.09459291
229	0xbeb2526d	-0.3482851
230	0xbe3021a9	-0.1720034
231	0x3c596930	0.013269708
232	0x3c845657	0.016154451
233	0x3e5339a1	0.20627452
234	0xbea82f5d	-0.32848635
235	0xbd9d56a4	-0.07682541
236	0x3d88f4ec	0.0668734
237	0x3e233887	0.15939532
238	0xbcccfac7	-0.025021924
239	0x3e584657	0.21120583
240	0x3b6e3912	0.0036349935
241	0xbd9081e9	-0.070560284
242	0x3e8bc361	0.272975
243	0xbe3cbc17	-0.18431126
244	0xbe6e4fd2	-0.23272637
245	0xbe6fee9f	-0.2343087
246	0x3e888359	0.2666271
247	0x3ca90374	0.02063153
248	0xbe132e55	-0.14373143
249	0x3b537b53	0.0032269552
250	0xbdfd1188	-0.123568594
251	0xbea4d6a3	-0.32195005
252	0x3d357b64	0.044307128
253	0x3e1bb5c3	0.15206055
254	0x3e8edfd4	0.27905142
255	0x3c90cc18	0.017675444

rnn.bias_ih_l1 f4 [192]
0	0xbbcd4adf	-0.006265029
1	0x3d6a3071	0.057175104
2	0x3e0deed3	0.13860635
3	0x3d88b64a	0.06675394
4	0x3de6faef	0.112783305
5	0xbd864668	-0.06556398
6	0x3b43aaac	0.0029856367
7	0xbdc8bad1	-0.098012574
8	0xbcf11fd5	-0.029434124
9	0xbc8f7a26	-0.0175143
10	0x3d8c070f	0.06837284
11	0xbdea1bf1	-0.11431111
12	0xbd665db6	-0.056241713
13	0x3dc5d5f9	0.09659953
14	0xbd9ce8f6	-0.07661621
15	0xbda302d2	-0.07959522
16	0xbc40b251	-0.011761264
17	0x3de0ec2a	0.10982545
18	0x3d010b64	0.031505004
19	0x3ddd03c6	0.10791735
20	0xbd06b1aa	-0.032884277
21	0xbdcf513d	-0.10122917
22	0x3b6f8753	0.0036549165
23	0xbcfc155a	-0.0307719
24	0xbc5cf5d1	-0.013486342
25	0x3da17c71	0.078850634
26	0xbd57e0f7	-0.052704778
27	0xba827cfd	-0.0009955462
28	0x3c92ad00	0.017904758
29	0x3db8c376	0.09021656
30	0x3dec7613	0.11545958
31	0x3dc56f63	0.09640386
32	0xbdaed96f	-0.08537566
33	0xbd845019	-0.0646059
34	0xbe0292e1	-0.12751342
35	0x3d78cb44	0.060740724
36	0x3c228fb0	0.009921953
37	0xbd92c066	-0.07165603
38	0x3b902ee6	0.004400122
39	0x3dec6ea1	0.11544538
40	0xbde6fe50	-0.11278975
41	0x3cf71a56	0.030163925
42	0x3c80ae62	0.015708152
43	0x3d84799d	0.064685084
44	0x3da72f4d	0.08163319
45	0x3cb21bd5	0.021741787
46	0x3c95283b	0.01820766
47	0x3df2a56b	0.11847957
48	0x3e0644d7	0.13112198
49	0x3c85ff49	0.016357081
50	0x3d3160ec	0.043305323
51	0x3d19d4d5	0.037556488
52	0x3c216384	0.0098503865
53	0x3e0d03fb	0.1377105
54	0x3cd0d194	0.02549056
55	0x3d8d7e20	0.06908822
56	0xbcf3caba	-0.029759753
57	0x3e0ae154	0.13562518
58	0x3bb7ad98	0.005605411
59	0x3e381b9f	0.17979287
60	0xbcbfae60	-0.023398578
61	0xbe27c7a0	-0.16384745
62	0x3dcfa515	0.10138909
63	0x3da7d183	0.08194258
64	0x3ce15563	0.027506536
65	0x3d99bc22	0.075065866
66	0x3e514e92	0.20440128
67	0xbdd17503	-0.10227396
68	0xbdcdfc64	-0.10057905
69	0x3db0c041	0.086304195
70	0xbde934fa	-0.113870576
71	0x3e397f20	0.181149
72	0x3df05c29	0.11736328
73	0x3e486de7	0.19573174
74	0x3d46b3e2	0.048511393
75	0x3d32c538	0.043645114
76	0x3e6a4a10	0.22879815
77	0xbd4e70d5	-0.050400574
78	0x3df60a38	0.12013668
79	0x3d75aa12	0.059976645
80	0xbd1cd5ae	-0.03828972
81	0x3d4129d2	0.047159024
82	0x3d49e18c	0.049287364
83	0x3ed23030	0.4105239
84	0xbdaefabe	-0.08543919
85	0x3de3d4d3	0.111245774
86	0xbd8830d7	-0.066499405
87	0x3e867989	0.262646
88	0x3dc3f0fb	0.09567448
89	0x3d5396bb	0.05165742
90	0x3e1ae1cd	0.15125199
91	0x3e392177	0.18079172
92	0xbae341a4	-0.0017338288
93	0x3d730999	0.059335325
94	0x3e876a1e	0.26448148
95	0x3d0c36e0	0.03423202
96	0x3e1a7661	0.1508422
97	0x3e235f86	0.15954408
98	0x3d909e93	0.07061496
99	0x3e1af07e	0.15130803
100	0xbd50c785	-0.050971527
101	0x3e955704	0.2916795
102	0xbda3cb63	-0.07997777
103	0x3dd0b8d7	0.101915054
104	0x3de8abe9	0.11360914
105	0x3e1c2ca6	0.15251407
106	0x3e2a6538	0.16640174
107	0x3e6a7bdd	0.22898813
108	0x3e04d919	0.12973441
109	0x3e0a4b37	0.13505255
110	0x3d6636fd	0.056204785
111	0x3ca2e3b0	0.01988396
112	0x3dcccd6f	0.10000121
113	0xbce2eda6	-0.02770121
114	0x3b5730c1	0.0032835456
115	0x3e841b65	0.2580215
116	0x3ce905c6	0.028445136
117	0x3e042707	0.12905513
118	0x3eb95eba	0.36205083
119	0xbd0da5e1	-0.034582023
120	0xbc7f5963	-0.015585276
121	0xbd8d362d	-0.06895099
122	0x3ec6d143	0.3883153
123	0xbdc4b891	-0.09605516
124	0x3ccc0c1b	0.024908116
125	0xbda34e74	-0.07973948
126	0x3dd61df6	0.10454933
127	0x3ec05e15	0.3757178
128	0xbde6a136	-0.11261217
129	0x3ccb6a93	0.024831092
130	0xbcfdbd5d	-0.030974085
131	0xbd77dc33	-0.060512733
132	0xbc878cfe	-0.016546723
133	0xbd576497	-0.052586164
134	0x3d3e0145	0.04638793
135	0xbdffdfdd	-0.124938704
136	0x3dcc80d0	0.099855065
137	0x3daaf368	0.08347207
138	0xbd843c42	-0.06456806
139	0xbd8e2086	-0.06939797
140	0xbbce199e	-0.006289675
141	0xbdc276bb	-0.09495302
142	0x3d35cf03	0.044386875
143	0xbdb0a374	-0.08624926
144	0x3d90e533	0.07074966
145	0x3d001a44	0.03127505
146	0xbe13ff67	-0.14452897
147	0xbdb4884e	-0.088150606
148	0xbdbe242e	-0.092842445
149	0x3b347274	0.002753404
150	0x3d63843f	0.05554604
151	0xbd847e2e	-0.06469379
152	0xbdbf2309	-0.09332854
153	0xbd822e7d	-0.06356523
154	0x3d1ecd15	0.0387698
155	0x3c26cb8c	0.010180365
156	0x3e064f58	0.13116205
157	0x3de27ff2	0.1105956
158	0xbd66273c	-0.05618976
159	0x3d0fef2a	0.035140194
160	0x3d12d18a	0.035844363
161	0x3cb6a2ad	0.022294367
162	0xbd2acbc1	-0.04169822
163	0xbd909ade	-0.070607886
164	0x3d850ced	0.06496606
165	0x3d94f9c6	0.07274203
166	0xbdd0418f	-0.10168754
167	0xbbedef87	-0.00726122
168	0x3defc884	0.11708167
169	0x3cbcd890	0.023052484
170	0xbd5983a3	-0.053104054
171	0x3cd9e1eb	0.026596984
172	0x3d9c3abc	0.0762839
173	0x3d75aa39	0.05997679
174	0xba20b391	-0.0006130273
175	0xbd60e085	-0.05490162
176	0x3d5e9c7a	0.054348446
177	0xbd945227	-0.07242232
178	0x3c7d3a28	0.01545576
179	0x3cb16b07	0.02165748
180	0x3beb8d22	0.007188455
181	0x3d50e7a5	0.051002163
182	0x3d82159d	0.06351779
183	0xbdb2233e	-0.08698128
184	0x3cf9b62e	0.030482378
185	0x3d8c911f	0.06863617
186	0x3d867261	0.06564785
187	0x3d0fef2a	0.035140194
188	0x3dcfc90b	0.10145768
189	0xbde0be50	-0.10973799
190	0xbd3439c6	-0.04400041
191	0xbd709f54	-0.058745697

rnn.bias_hh_l1 f4 [192]
0	0xbd8d2dae	-0.06893478
1	0xbd9138c1	-0.07090903
2	0x3d0801f0	0.033204973
3	0x3d55cbc7	0.05219629
4	0x3be8d0be	0.007104962
5	0x3d1e16ec	0.03859608
6	0x3bbbe6b1	0.0057342877
7	0x3c46022f	0.012085482
8	0x3d771720	0.060324788
9	0xbb706ed8	-0.0036687162
10	0xbd7f772d	-0.062369514
11	0xbde8e53d	-0.11371849
12	0x3d8c056f	0.06836974
13	0x3db901ac	0.09033522
14	0x3d88e85b	0.06684943
15	0xbd52b672	-0.051443525
16	0x3ccc3a6b	0.0249302
17	0xbd8f3d72	-0.06994142
18	0xbca4868f	-0.020083694
19	0xbb35e8b8	-0.002775712
20	0xbc9e8685	-0.019351253
21	0xbdb21a8a	-0.08696468
22	0x3b0bcd2d	0.002133201
23	0x3d4ac23a	0.049501635
24	0xbc50b5b7	-0.012738637
25	0x3dda4397	0.10657423
26	0x3d8acf0f	0.067777745
27	0xbca48cf8	-0.02008675
28	0xbca841a2	-0.020539109
29	0xbc794f9c	-0.015216734
30	0xbdc388a0	-0.095475435
31	0xbcfa5493	-0.030557906
32	0x3ba76248	0.0051081516
33	0xbdec8c85	-0.115502395
34	0xbc180fef	-0.009281143
35	0xbdacdbb9	-0.08440346
36	0x3d90e834	0.07075539
37	0x3cfa099b	0.030522158
38	0x3daeddb2	0.08538379
39	0x3dd4acbf	0.10384511
40	0xbd5b56a2	-0.053549416
41	0x3caf3610	0.021388084
42	0xbd828058	-0.06372136
43	0x3c5aec40	0.01336199
44	0x3c2ce2ce	0.010552121
45	0x3d9fd8c3	0.07805016
46	0xbde6799b	-0.11253663
47	0x3cb05409	0.021524446
48	0xbdd3a0f7	-0.10333436
49	0x3c74d4fe	0.014943359
50	0xbd8da564	-0.069163114
51	0xbd7df7fd	-0.06200408
52	0xbe184fcf	-0.14874195
53	0x3c8411d2	0.016121779
54	0x3d36c2c5	0.04461934
55	0xbdc341cf	-0.09534036
56	0x3dcfac3d	0.10140274
57	0xbd88879b	-0.0666649
58	0x3bcb12ec	0.006197324
59	0xbd4addfc	-0.049528107
60	0xbc8df8bc	-0.01733052
61	0x3b0eabdc	0.0021769917
62	0xbd77dd70	-0.060513914
63	0xbd8f9c53	-0.07012238
64	0x3e1680da	0.1469759
65	0x3e8e59cd	0.27802888
66	0x3cdcdc24	0.02696044
67	0x3e0afaa1	0.1357217
68	0x3c9e2485	0.019304523
69	0xbce7b038	-0.02828227
70	0x3b966719	0.004589927
71	0x3e0351ed	0.12824221
72	0x3e531ee0	0.20617247
73	0x3e25bee2	0.16186097
74	0xbc307d93	-0.010772127
75	0x3e353497	0.17695843
76	0x3e0bb68e	0.13643858
77	0x3e0796c7	0.1324111
78	0x3dd654d9	0.10465402
79	0x3e28e882	0.16494945
80	0x3e2abbfa	0.1667327
81	0xbc4a9036	-0.012363484
82	0x3db3f5ef	0.087871425
83	0x3ebec79c	0.37261665
84	0x3ca96207	0.020676626
85	0x3e90aa2d	0.28254834
86	0xbcf4e1f2	-0.029892895
87	0x3e1ccb15	0.15311845
88	0x3d3aa0f6	0.04556366
89	0x3e0ac87d	0.13553043
90	0x39cc94ff	0.00039020923
91	0x3e268f3b	0.16265576
92	0x3da18861	0.0788734
93	0xbd087c9d	-0.033321965
94	0x3eaa4a90	0.33260012
95	0x3e088716	0.13332781
96	0x3e241991	0.16025378
97	0x3e3a7e2f	0.18212198
98	0xbd314c47	-0.043285634
99	0x3e5093de	0.20368907
100	0xbd533ea2	-0.051573403
101	0x3eb7eaf4	0.35921443
102	0xbdd429e9	-0.10359556
103	0x3e0d9428	0.13826048
104	0x3d3b2354	0.04568799
105	0x3e2b11b7	0.16705976
106	0x3d10ac15	0.03532036
107	0x3da2e364	0.079535276
108	0x3da2a66b	0.07941898
109	0xbcaa363b	-0.020777812
110	0x3dab290d	0.08357439
111	0x3c228c02	0.009921076
112	0x3cd874cd	0.026422882
113	0x3ccb774d	0.02483716
114	0xbc76450c	-0.0150311105
115	0x3e6f93b7	0.23396192
116	0x3c806950	0.015675217
117	0xbbaf2393	-0.005344817
118	0x3e9c5a59	0.3053768
119	0xbcb9cb9f	-0.022680102
120	0x3e332cd2	0.17497566
121	0x3d905733	0.07047882
122	0x3e5a4040	0.21313572
123	0x3e08a29c	0.1334328
124	0x3d124c9b	0.035717588
125	0x39e3d335	0.00043454175
126	0x3e1a181d	0.15048261
127	0x3eba6019	0.36401442
128	0xbdc63c4e	-0.09679471
129	0xbdc6a9e3	-0.09700372
130	0xbd928b23	-0.071554445
131	0x3d842e86	0.06454186
132	0x3ddb8dc2	0.107203975
133	0xbdd934bd	-0.10605762
134	0x3d56cff2	0.052444406
135	0xbcb60a38	-0.02222167
136	0xbcef560d	-0.029215837
137	0x3dd13dfe	0.10216902
138	0xbe00f960	-0.12595129
139	0xbdfa722e	-0.12228809
140	0xbdb592e7	-0.0886591
141	0xbc7cb68c	-0.015424382
142	0xbdf4becc	-0.11950454
143	0x3da97b76	0.082755014
144	0xbd9d7e48	-0.07690102
145	0x3cf9b8be	0.0304836
146	0x3ca595d6	0.020213049
147	0xbd177394	-0.03697546
148	0x3e45458e	0.19264814
149	0xbcdda73a	-0.027057279
150	0xbdb054dc	-0.08609936
151	0xbd6227f1	-0.055213872
152	0xbdeb1380	-0.11478329
153	0xbc63e937	-0.013910583
154	0xbd98dddb	-0.074641906
155	0x3d02f666	0.031973265
156	0x3de0f577	0.10984319
157	0x3bd72948	0.0065662004
158	0xbd9e1e50	-0.077206254
159	0xbd409d34	-0.04702492
160	0xbe051a44	-0.12998301
161	0x3dabbffd	0.08386228
162	0x3d1c51d6	0.038163982
163	0xbce03ab7	-0.027371747
164	0x3acb2eba	0.0015501596
165	0xbbb73bb5	-0.0055918344
166	0xbd291366	-0.041278265
167	0xbd71ca9d	-0.059031118
168	0xbc7755cc	-0.015096139
169	0xbd06fce2	-0.03295601
170	0xbdd6c250	-0.10486281
171	0xbddbad9d	-0.107264735
172	0xbc931437	-0.017953975
173	0x3db14f86	0.08657746
174	0x3d88125e	0.06644128
175	0xbe147a70	-0.14499831
176	0x3e0a56bd	0.1350965
177	0xbda522e7	-0.08063298
178	0xbda5cdad	-0.0809587
179	0x3db1bd00	0.08678627
180	0xbd915eed	-0.07098184
181	0xbb668d1c	-0.0035179323
182	0x3da65ea8	0.08123523
183	0xbd8da8cf	-0.06916963
184	0xbd804d04	-0.062646896
185	0x3bc3be0d	0.0059735836
186	0xbd83c9ee	-0.064349994
187	0xbd06ca43	-0.032907736
188	0x3d970f9e	0.073760256
189	0x3c6bd296	0.014393469
190	0x3d702df2	0.058637567
191	0x3b1594fd	0.00228244
